model_dicts/20-10-dict.pt (torch, 65704 bytes, 4 tensors)

layers.0.weight f4 [20, 784]
0	0xbd0b5d73	-0.034024667
1	0xbd06c1cf	-0.032899674
2	0xb9c71f80	-0.00037979707
3	0x3c842568	0.016131118
4	0x3cd8dcac	0.026472412
5	0xbc9aabde	-0.01888078
6	0x3d10d003	0.035354625
7	0xbc840265	-0.016114423
8	0xbd013c98	-0.031551927
9	0xbcc73f7e	-0.024322268
10	0x3aa7bc60	0.0012797229
11	0xbc1c0c8e	-0.009524478
12	0xbcb20a74	-0.0217335
13	0x3d06e04d	0.032928754
14	0x3d099d4a	0.03359727
15	0xbc2b7bf9	-0.010466569
16	0x3b8026f8	0.0039108954
17	0xbd08b220	-0.033373
18	0xbd04055e	-0.03223168
19	0xbce0800a	-0.027404804
20	0xbc9fa24a	-0.019486565
21	0x3c7aabd0	0.015299752
22	0xbc0c6ed2	-0.0085713435
23	0xbcd06dc0	-0.025442958
24	0xbca2fdd3	-0.019896423
25	0xbcff5b33	-0.031171417
26	0xbb473720	-0.0030397847
27	0x3cff76ca	0.031184573
28	0xbcf689da	-0.03009503
29	0x3b9d3218	0.0047972314
30	0xbb15d860	-0.0022864565
31	0xbcb41855	-0.021984259
32	0xbd077eb6	-0.033079825
33	0x3c65dfe0	0.014030427
34	0x3bf1990b	0.0073729805
35	0x3ce28e51	0.027655752
36	0x3cd08511	0.025454076
37	0x3c19010e	0.00933863
38	0xbcf1b170	-0.029503554
39	0xbd0caffe	-0.034347527
40	0x3ad3c2e2	0.0016156102
41	0xbce239c6	-0.02761544
42	0xbcf992cf	-0.030465512
43	0x3cbef202	0.023308758
44	0x3ceb8870	0.028751582
45	0xbc87b630	-0.016566366
46	0xbbc23b45	-0.0059274756
47	0x3c5ec0b1	0.013595746
48	0xbd063e66	-0.03277435
49	0xbbc50cfc	-0.0060135107
50	0x3cde3ee7	0.027129604
51	0x3cc54ae0	0.024083555
52	0xbaed95c0	-0.0018126294
53	0xbc18663c	-0.009301718
54	0x3baef5c8	0.005339358
55	0x3d03479d	0.032050718
56	0x3b491460	0.003068231
57	0x3c2ec070	0.010665998
58	0x3d0e6ae7	0.03476992
59	0x3cfe8735	0.031070331
60	0x3cb05c68	0.021528438
61	0xbbe50419	-0.006989014
62	0x3ac9f6aa	0.0015408595
63	0xbc46bf76	-0.012130609
64	0x3cd54ac3	0.026036626
65	0x3c17c645	0.00926358
66	0x3cdfdcb3	0.027326917
67	0x3b26adaa	0.0025433102
68	0x3d4564e5	0.048191924
69	0x3d294055	0.041321117
70	0x3d568577	0.052373376
71	0x3d48eda2	0.04905475
72	0x3d0496b3	0.03237028
73	0x3cc03027	0.02346046
74	0x3c6fe408	0.014641769
75	0x3c035f48	0.008018322
76	0xb8a0a9b3	-7.6610035e-05
77	0x3d14d9f6	0.036340676
78	0xbcb64abf	-0.022252439
79	0xbbbd3a51	-0.005774774
80	0x3cc2a2d6	0.023759287
81	0x3c918990	0.01776579
82	0xbc422f78	-0.011852138
83	0xbb376e00	-0.002798915
84	0x3a583580	0.0008247718
85	0x3ce230e6	0.027611207
86	0x3ce6bffb	0.028167715
87	0x3cfd8521	0.03094727
88	0x3d0ce8f9	0.034401868
89	0xbc637222	-0.013882192
90	0x3cc2062c	0.023684584
91	0xbbd8a088	-0.0066109337
92	0xbc951159	-0.018196749
93	0x3d018a98	0.031626314
94	0xbb658afc	-0.0035025468
95	0x3d20a05a	0.039215423
96	0x3d2224b4	0.039585784
97	0x3d6c79a8	0.057733208
98	0x3d57d35e	0.05269181
99	0x3cc90eb9	0.024543153
100	0x3cb7fed9	0.022460388
101	0x3d30331a	0.043017484
102	0x3cd6e1c7	0.026230706
103	0x3d047ee2	0.032347567
104	0x3b657261	0.0035010802
105	0xbc365b09	-0.011130103
106	0x3b4452dd	0.0029956617
107	0xbb9bca10	-0.0047543123
108	0x3c0a8b7f	0.00845611
109	0x3c1859ed	0.009298784
110	0x3d112b76	0.03544184
111	0x3c810eec	0.015754186
112	0xbc1a6338	-0.00942307
113	0x3b5b6820	0.0033478811
114	0x3be85389	0.0070900363
115	0xbbceb38e	-0.0063080257
116	0xbcdc1569	-0.026865678
117	0x3cedde8a	0.029036779
118	0x3cfd8674	0.030947901
119	0x3cc0670f	0.023486642
120	0x3d53bf7f	0.051696297
121	0x3d90c4b0	0.07068765
122	0x3da2fb9a	0.079581454
123	0x3d705c46	0.05868175
124	0x3c1e61b5	0.00966685
125	0x3c1eb7a4	0.009687338
126	0xbd6d7c7d	-0.05798005
127	0xbd2dcd92	-0.042432375
128	0xbdb29551	-0.08719886
129	0xbd14c65b	-0.03632198
130	0xbcdae7d1	-0.026721867
131	0x3c8b4b8d	0.017003799
132	0x3ca38dcc	0.019965075
133	0xb9e7806b	-0.00044155432
134	0x3ccc4755	0.024936358
135	0xbc21ab8e	-0.009867562
136	0xbb9d08f2	-0.004792326
137	0x3bab0044	0.0052185375
138	0x3ab0ccf0	0.001348881
139	0x3c958f70	0.018256873
140	0xbc4d8938	-0.0125449225
141	0xbcacfa50	-0.021115452
142	0xbcb500cc	-0.022095107
143	0x3b9ff5b8	0.004881587
144	0xbbb4b807	-0.005515102
145	0x3c990e35	0.018683532
146	0x3d414a32	0.0471899
147	0x3d4f6536	0.05063363
148	0x3d877ce7	0.0661562
149	0x3d45199a	0.04812012
150	0x3d07c4ce	0.033146672
151	0xbcf838bd	-0.030300492
152	0x3c27ce1c	0.010242011
153	0xbce535b5	-0.027979711
154	0xbdc2897f	-0.094988815
155	0xbdcfec33	-0.10152473
156	0xbdee10d8	-0.116243064
157	0xbdb05fe5	-0.086120404
158	0xbdaa086c	-0.083023876
159	0xbdc084d7	-0.09400337
160	0xbdb77f5b	-0.08959838
161	0xbd9c933c	-0.0764527
162	0xbd2c0e70	-0.042005956
163	0xbd0014ba	-0.031269766
164	0x3acca322	0.0015612582
165	0xbbd38dd5	-0.0064561167
166	0x3c700630	0.014649913
167	0x3c43721d	0.011929062
168	0x3ce78302	0.028260712
169	0x3c738bcf	0.014864876
170	0x3b4f5a1d	0.0031639405
171	0xbc5c81e0	-0.013458699
172	0x3cef12c8	0.02918376
173	0x3d05877e	0.03259992
174	0x3ce6f236	0.028191667
175	0x3d314178	0.043275326
176	0x3c623c03	0.013808253
177	0x3c11fd44	0.008910481
178	0xbc3325f2	-0.01093434
179	0x3cf9538d	0.030435348
180	0xbc83bf25	-0.016082356
181	0x3c5bb895	0.013410707
182	0xbce10fd9	-0.027473377
183	0x3c7805e8	0.015138127
184	0x3c32dbeb	0.01091669
185	0xbc36032e	-0.0111091565
186	0xbd2002f5	-0.03906532
187	0xbd8ae268	-0.06781465
188	0xbde24572	-0.11048402
189	0xbd9463da	-0.07245608
190	0xbdc34b37	-0.095358305
191	0xbdc487aa	-0.09596188
192	0xbceb53f0	-0.028726548
193	0xbcede536	-0.02903996
194	0xbc783b31	-0.015150831
195	0x3b8079c0	0.0039207637
196	0xbc969aa0	-0.018384278
197	0x3c958683	0.018252617
198	0x3d15a564	0.036534682
199	0x3c9df2d4	0.019280829
200	0x3d80cc82	0.06289007
201	0x3c6d73db	0.014492954
202	0x3d6e788b	0.058220427
203	0xbb49c2d5	-0.0030786295
204	0x3b3284f1	0.0027239884
205	0xbc644b57	-0.013933978
206	0x3d071a29	0.032983933
207	0x3cdad571	0.026713105
208	0x3a3d4dc9	0.0007221369
209	0x3d88e8b7	0.06685012
210	0x3daf9871	0.08573998
211	0x3d9f4829	0.07777435
212	0x3d56b02a	0.052414097
213	0x3be86243	0.007091792
214	0xbd7be6a9	-0.06149927
215	0xbd46ef28	-0.04856792
216	0xbda7506c	-0.08169636
217	0xbdc604bc	-0.09668872
218	0xbd8d0ff9	-0.06887812
219	0xbe07569d	-0.13216634
220	0xbdbb8a00	-0.09157181
221	0xbd092a28	-0.03348747
222	0xbc3d3989	-0.011549362
223	0xbc524580	-0.012833953
224	0x3cb5d580	0.022196531
225	0x3d0100ab	0.031494778
226	0x3c7cd791	0.015432254
227	0xbbb5295f	-0.0055286135
228	0x3d4a9ea7	0.04946771
229	0x3d5c5737	0.053794112
230	0x3d2e3389	0.042529617
231	0xbc13a2cf	-0.009010985
232	0xbc87cb7f	-0.016576527
233	0xbceb2619	-0.02870469
234	0xbcf4b444	-0.029871114
235	0x3bc91318	0.0061363094
236	0x3ba7517a	0.0051061483
237	0x3d33fe6c	0.043943807
238	0x3d91f812	0.07127394
239	0x3d992b7c	0.07478997
240	0xbb2a2ada	-0.0025965483
241	0xbd1e75a4	-0.03868641
242	0xbd368fa8	-0.044570595
243	0xbd93d462	-0.07218243
244	0xbcd53c6a	-0.026029784
245	0xbd6f823a	-0.058473803
246	0xbd97c9ae	-0.07411514
247	0xbe32ca42	-0.17459968
248	0xbde1d6e6	-0.11027317
249	0xbd61ab08	-0.05509475
250	0xbcca9037	-0.02472697
251	0x3c7e5d35	0.015525152
252	0xbd0d4982	-0.03449393
253	0xbd11f900	-0.035637856
254	0x3cfe35a6	0.031031441
255	0x3bc43d3f	0.0059887464

layers.0.bias f4 [20]
0	0x3d0459f6	0.032312356
1	0xbcfb092c	-0.030644022
2	0xbd7a47bd	-0.06110357
3	0x3d5ffa1d	0.054681886
4	0x3e280f11	0.16411997
5	0x3b456fdb	0.0030126486
6	0xbe185424	-0.14875847
7	0xbcccc3de	-0.02499574
8	0x3ecbaaf0	0.39778852
9	0xbcf8eaf2	-0.030385468
10	0x3e57cef0	0.21075034
11	0x3e7255ca	0.23665538
12	0xbe8316cf	-0.2560334
13	0x3e8310fc	0.25598896
14	0xbdc19cb0	-0.09453714
15	0x3e00a668	0.12563479
16	0xbe0cf5a6	-0.13765582
17	0x3e26bd1a	0.16283074
18	0x3e8fb172	0.28065068
19	0x3d98c7cc	0.07459983

layers.1.weight f4 [10, 20]
0	0xbec4661e	-0.3835916
1	0xbea8bed5	-0.32958093
2	0x3f4a2ad2	0.7897159
3	0xbe9518b8	-0.2912042
4	0xbf031b25	-0.51213294
5	0xbe5c22b1	-0.21497609
6	0x3e1b88d3	0.15188913
7	0x3ee3915b	0.44446835
8	0xbebc0297	-0.36720726
9	0xbd9979a1	-0.07493902
10	0xbecd578a	-0.4010585
11	0xbd27ff53	-0.04101498
12	0x3c92d18f	0.017922191
13	0x3f069085	0.5256427
14	0xbf2642a8	-0.6494546
15	0x3f680dcd	0.9064606
16	0x3d4ab3da	0.049487926
17	0xbe36d59b	-0.17854922
18	0xbea002c6	-0.31252116
19	0xbef504f6	-0.47855347
20	0xbea8d650	-0.32976007
21	0x3f090f6e	0.5353917
22	0xbeab55a3	-0.33463773
23	0xbed129a5	-0.40852085
24	0xbdd8094e	-0.1054865
25	0x3f425048	0.7590375
26	0xbf1e4605	-0.6182559
27	0x3c90f490	0.017694741
28	0x3f04bb8e	0.51848686
29	0x3e3c5e5f	0.18395375
30	0x3ed4d29e	0.41566938
31	0xbe7d4a41	-0.24735357
32	0x3e1a8956	0.15091452
33	0xbf32b567	-0.6980805
34	0x3db68831	0.08912695
35	0xbded18c6	-0.11576991
36	0xbf08cd87	-0.5343861
37	0xbe0f9f7d	-0.14025684
38	0x3f1ba446	0.60797536
39	0x3e479862	0.19491723
40	0x3e6df342	0.23237327
41	0xbe2d463e	-0.16921327
42	0x3eb2284c	0.3479637
43	0x3e971fca	0.2951644
44	0xbecabacc	-0.3959564
45	0xbe14be88	-0.14525807
46	0xbf4aca61	-0.79215056
47	0xbe163fa8	-0.1467272
48	0x3eb88e8f	0.36046264
49	0x3db1027f	0.08643054
50	0x3f3b7ccd	0.73237306
51	0xbef661a5	-0.48121372
52	0x3f01a5bc	0.50643516
53	0x3ec18470	0.37796354
54	0x3f1b8082	0.6074296
55	0x3ebb6f5a	0.36608392
56	0x3ed27455	0.4110438
57	0xbf1e79b3	-0.6190445
58	0xbf0f5679	-0.5599132
59	0x3e893045	0.2679464
60	0x3e63c917	0.22244678
61	0xbf05c94d	-0.52260286
62	0xbe9da0ba	-0.30786687
63	0x3e0d5350	0.13801312
64	0xbe4f145e	-0.20222613
65	0x3eb79a4f	0.35859916
66	0xbf463a12	-0.7743236
67	0x3f11c923	0.56947535
68	0x3dffa244	0.124821216
69	0xbe030c52	-0.12797669
70	0xbeb5a0ed	-0.3547434
71	0x3e30f7e9	0.1728207
72	0xbd131757	-0.03591093
73	0xbd9689fb	-0.073505364
74	0x3eea8efa	0.45812207
75	0xbe78b10e	-0.24286291
76	0x3e6f1f65	0.2335182
77	0x3f7618b8	0.9613147
78	0xbe84abb0	-0.25912237
79	0xbeb4c765	-0.35308376
80	0x3e8eec23	0.27914533
81	0xbeb7dfcf	-0.3591294
82	0xbf3f36b1	-0.7469283
83	0xbf242ce7	-0.64131016
84	0x3ed400c2	0.41406828
85	0xbe836735	-0.25664678
86	0x3f44404e	0.7666062
87	0xbf1347b7	-0.57531303
88	0xbf27d215	-0.65554935
89	0xbe085314	-0.13312942
90	0xbd665046	-0.0562289
91	0xbe270cca	-0.16313472
92	0xbec89ead	-0.3918356
93	0x3d1c1e49	0.03811482
94	0x3ea6b87f	0.32562634
95	0x3eacd1e6	0.3375389
96	0x3eedbbd2	0.46432358
97	0xbea7dbb7	-0.32784817
98	0x3f37cffa	0.7180172
99	0x3f23cdf0	0.6398611
100	0xbf42ac8f	-0.76044554
101	0xbf049886	-0.5179523
102	0xbe9e3482	-0.30899435
103	0x3f1eb03e	0.61987674
104	0x3f1eaf7a	0.61986506
105	0xbebaf2a2	-0.3651324
106	0x3e7006d5	0.23440106
107	0x3e7e7bc0	0.24851894
108	0x3f776e39	0.9665256
109	0xbdb728c6	-0.08943324
110	0x3db013fc	0.08597562
111	0x3ecc9f2e	0.39965194
112	0xbed9d7d0	-0.42547464
113	0x3e4ad05c	0.19806045
114	0xbf26ce9c	-0.6515901
115	0xbdb33182	-0.08749677
116	0x3e120067	0.14257966
117	0xbdb8f1a4	-0.09030464
118	0x3e9b6357	0.30349228
119	0xbe906f08	-0.2820971
120	0x3ec67b60	0.38766003
121	0xbe4a26da	-0.19741383
122	0x3f2517d3	0.6448948
123	0x3e0f64dc	0.14003319
124	0xbe5b9e22	-0.21447042
125	0x3eec3b47	0.46138975
126	0x3f4c35dd	0.7976969
127	0xbf00f8eb	-0.5037982
128	0x3daa9670	0.08329475
129	0xbe2b7403	-0.16743474
130	0xbec9070b	-0.39263186
131	0xbeb644a4	-0.35599244
132	0xbf0e610d	-0.5561684
133	0x3e5bf1df	0.21478985
134	0x3ebe6b78	0.37191367
135	0xbec6b028	-0.38806272
136	0xbe8c3aa3	-0.27388486
137	0xbf73163c	-0.949558
138	0x3e2276f4	0.1586569
139	0xbeeb0d79	-0.45908716
140	0x3ea65f15	0.32494417
141	0x3ed67c82	0.41891867
142	0xbe3f61c6	-0.18689641
143	0xbeca8090	-0.3955121
144	0x3f01b624	0.5066855
145	0x3ec994cc	0.39371336
146	0xbf0ad76a	-0.54234946
147	0xbe445638	-0.19173515
148	0xbf7922c9	-0.973187
149	0xbdadd629	-0.084881134
150	0x3f5882b3	0.8457443
151	0x3f37a282	0.7173234
152	0xbeb005a5	-0.34379306
153	0x3f261d8d	0.6488884
154	0xbefd8d0e	-0.4952168
155	0xbda4cf4b	-0.080473505
156	0xbf03aa7d	-0.5143202
157	0x3edb0cbb	0.4278315
158	0xbf0f6820	-0.5601826
159	0x3ea45d77	0.32102558
160	0xbf1b4a6b	-0.6066043
161	0x3f05fbf3	0.5233757
162	0x3dc1a0af	0.09454476
163	0xbee2352f	-0.441812
164	0x3efc3b5c	0.49264038
165	0x3cf9ce45	0.030493865
166	0x3ed8362e	0.42228836
167	0x3edd5ece	0.43236393
168	0x3db45ab5	0.088063635
169	0x3e11f530	0.14253688
170	0xbf214da7	-0.63009113
171	0xbde3b65e	-0.11118768
172	0x3f2b2193	0.66848105
173	0xbe97e18a	-0.2966426
174	0xbd38d1bb	-0.04512189
175	0xbf10bcfe	-0.5653838
176	0x3f00dae3	0.50333995
177	0xbe265997	-0.16245113
178	0xbf2b80de	-0.6699351
179	0x3dc97049	0.0983587
180	0x3efd590a	0.49481994
181	0x3ed680a8	0.41895032
182	0x3e5ee4ab	0.21766917
183	0x3ed994fd	0.42496482
184	0xbe4670a1	-0.19378902
185	0xbf086662	-0.53281224
186	0x3e930a28	0.28718686
187	0xbe9995dd	-0.2999715
188	0xbf1ad4b3	-0.60480803
189	0x3c624c0f	0.013812079
190	0xbf25f1ce	-0.6482209
191	0x3ec4d688	0.38444924
192	0x3ee54c31	0.44784692
193	0xbe5abde3	-0.21361499
194	0xbf04688f	-0.51722044
195	0xbe7aff5d	-0.24511476
196	0xbeb21a24	-0.3478557
197	0x3edf11af	0.4356818
198	0x3ee195ea	0.44059688
199	0x3f27fe8f	0.656228

layers.1.bias f4 [10]
0	0xbca1a01e	-0.01972967
1	0x3e09618b	0.13416116
2	0xbe7c924e	-0.24665186
3	0xbea1f4af	-0.3163199
4	0x3e08f645	0.13375194
5	0x3eabb923	0.33539686
6	0x3cec5026	0.028846812
7	0x3ea7d563	0.3277999
8	0xbf05130b	-0.5198218
9	0xbe438fc6	-0.19097814
