model_dicts/50-50-10-dict.pt (torch, 171908 bytes, 6 tensors)

layers.0.weight f4 [50, 784]
0	0xbbac9b70	-0.005267553
1	0x3c3a3f08	0.011367567
2	0x3c6204b0	0.013795063
3	0x3cbef2bc	0.023309104
4	0x3bd58e68	0.0065172203
5	0xbcafa800	-0.021442413
6	0xbd078ae6	-0.03309145
7	0x3cb18b1a	0.021672774
8	0xbc74f5c0	-0.0149511695
9	0xbc724766	-0.0147875305
10	0xbcbfef1e	-0.02342945
11	0x3ca597aa	0.02021392
12	0xbbd15250	-0.0063879862
13	0xbc853861	-0.016262235
14	0xbd112d87	-0.03544381
15	0xbd03d9d4	-0.03219016
16	0x3cd77d18	0.026304767
17	0xbd02bdfd	-0.03191947
18	0x3b8caff8	0.004293438
19	0x3c9be292	0.019028936
20	0x3c9fdbf0	0.019514054
21	0x3b250e30	0.0025185458
22	0xbaf8f720	-0.0018994547
23	0xbb8f6668	-0.0043762214
24	0xbce86dc8	-0.02837266
25	0x3cd264b6	0.025682788
26	0xbd0e4bac	-0.034740135
27	0xbcc97553	-0.024592077
28	0x3c9494ae	0.018137302
29	0xbca17c5a	-0.019712616
30	0x3b9d6a58	0.004803937
31	0xbc1dcbfc	-0.009631153
32	0xbc53aaab	-0.012919108
33	0xbc804ecd	-0.015662575
34	0xbcdb7d65	-0.026793191
35	0x3d0b7d04	0.03405477
36	0xbcff2274	-0.031144358
37	0x3ca0691e	0.019581374
38	0x3c6af74e	0.014341189
39	0x39959bee	0.0002853567
40	0x3cf9a6b4	0.030474998
41	0x3d0cac96	0.03434428
42	0xbb92bf33	-0.004478359
43	0xbcdc0083	-0.026855713
44	0x3d1b335c	0.037890777
45	0x3ca1867f	0.019717453
46	0x3ad98a7e	0.001659706
47	0x3ccc3b05	0.024930486
48	0x3c406e71	0.011745081
49	0x3c8d9493	0.01728276
50	0x3c6409b7	0.013918332
51	0xbbee0ed0	-0.0072649494
52	0x3ca9e038	0.020736799
53	0xbd09825e	-0.033571593
54	0xbcf0cfb1	-0.02939591
55	0x3ca51256	0.020150345
56	0xbcd3748c	-0.02581241
57	0xbc2558ce	-0.0100919735
58	0x3cd746b1	0.026278825
59	0xbcb5b565	-0.022181222
60	0xbcb8f8c5	-0.02257956
61	0x3ce7d98e	0.02830198
62	0xbc9f9fac	-0.019485317
63	0x3c5a1e0a	0.013312826
64	0x3c954806	0.01822282
65	0x3cb816c4	0.022471793
66	0xbca4e378	-0.020127997
67	0x3c5695dc	0.013097253
68	0x3cf81344	0.030282624
69	0x3d20e4cd	0.0392807
70	0x3d15026c	0.036379263
71	0x3c425387	0.011860735
72	0xbc871c27	-0.016492916
73	0x3d33d142	0.043900736
74	0xbc9db5ad	-0.019251669
75	0xbbe1dea3	-0.0068929954
76	0xbc617c99	-0.013762617
77	0xbc609618	-0.01370766
78	0xbcab7510	-0.020929843
79	0xbc2a8a1b	-0.0104089035
80	0x3b8aa051	0.004230537
81	0xbd09f8c3	-0.033684503
82	0x3cde0542	0.027102116
83	0xbbb0b930	-0.00539317
84	0xbbe02c94	-0.0068412516
85	0x3cf83b66	0.03030176
86	0xbc32b7bc	-0.0109080635
87	0xbd10051f	-0.035161134
88	0x3b679c8b	0.003534111
89	0x3bcb913f	0.006212383
90	0xbcc18129	-0.023621159
91	0x3d0abb00	0.033869743
92	0x3cedcc14	0.029027976
93	0x3c8dd85b	0.01731508
94	0x3d1d3d3a	0.03838847
95	0x3d4db4b2	0.050221153
96	0x3d6faa5e	0.058512084
97	0x3ce502b6	0.027955394
98	0x3d31d342	0.04341436
99	0x3b9e6f47	0.0048350426
100	0x3d128410	0.035770476
101	0xbc52fd4b	-0.012877773
102	0xbabc9165	-0.0014386593
103	0xbb6ede07	-0.0036448257
104	0x3cbfefc5	0.02342976
105	0xbad1a8a4	-0.0015995693
106	0xbcbd238b	-0.023088237
107	0x3cd4b57b	0.025965443
108	0x3d1326ad	0.035925556
109	0x3c605ea2	0.013694437
110	0xbc1abc36	-0.009444287
111	0xbc528d18	-0.012851022
112	0x3d0bac5b	0.034099918
113	0x3cf68376	0.030091982
114	0xbcc3b65f	-0.023890672
115	0xbc843ee9	-0.01614328
116	0x3cfafe17	0.030638738
117	0x3d03605a	0.03207431
118	0x3cc74715	0.024325887
119	0xbbab921e	-0.0052359244
120	0xbc860999	-0.016361998
121	0xb8ccb976	-9.762023e-05
122	0xba6e6586	-0.00090941077
123	0x3d487766	0.048941992
124	0x3d2af68f	0.041739043
125	0x3d989006	0.07449345
126	0x3c999e6f	0.018752305
127	0x3da7502a	0.08169587
128	0x3d77503f	0.060379263
129	0x3ce10bca	0.027471442
130	0x3d63e9ed	0.05564301
131	0x3bfb3271	0.007665925
132	0x3d01bef3	0.031676244
133	0xbb85ea94	-0.004086802
134	0xbce9d191	-0.028542312
135	0xbc9a8ad5	-0.018865028
136	0xbccaaa1a	-0.024739314
137	0xbce853d8	-0.028360292
138	0x3a9cb128	0.0011954652
139	0xbcaf7dcd	-0.021422291
140	0x3c44883c	0.011995371
141	0xbc56619c	-0.013084795
142	0x3cb3b50b	0.021936914
143	0x3d064baf	0.03278702
144	0x3bef3ba5	0.0073008114
145	0xbcedf76f	-0.02904865
146	0xbcfd190d	-0.030895734
147	0xba939ac2	-0.0011261331
148	0x3d302eae	0.043013267
149	0x3d6a437d	0.057193268
150	0x3d83b7a9	0.06431515
151	0x3d73d5a1	0.059529904
152	0x3cd95e07	0.026534094
153	0x3cf64ef8	0.030066952
154	0x3d9fdb1d	0.078054644
155	0x3d943b21	0.072378404
156	0x3d9777b3	0.07395878
157	0x3d353162	0.04423655
158	0x3d0e56a5	0.0347506
159	0x3d6fd1e9	0.058549795
160	0xbc53758a	-0.012906441
161	0x3a2507b0	0.0006295396
162	0x3cf2306e	0.029564109
163	0xbc3a1f12	-0.011359947
164	0x3a7eac32	0.000971499
165	0x3b9b96d6	0.0047482057
166	0x3cd08bd2	0.025457297
167	0x3ced2ea8	0.028952911
168	0x3c882778	0.016620383
169	0xbc4fd713	-0.012685555
170	0xb95d2943	-0.00021091574
171	0x3cb27248	0.02178301
172	0xbbc45762	-0.005991862
173	0x3c4c6f7b	0.012477751
174	0x3cdffd58	0.027342483
175	0xbcebc0b3	-0.02877841
176	0xbad4a662	-0.0016223902
177	0x3bcf77d4	0.0063314233
178	0x3cddc151	0.02706972
179	0xb9bfb1c2	-0.000365628
180	0x3d2787a2	0.040900834
181	0x3cad23f4	0.021135308
182	0xbc2896e1	-0.010289879
183	0x3c4797aa	0.012182156
184	0x3b9a21fb	0.004703758
185	0x3c4e05f2	0.01257466
186	0x3cc59b85	0.024122009
187	0x3cc371a3	0.023857897
188	0x3c479115	0.012180586
189	0x3c597566	0.013272619
190	0x3cf9088b	0.030399581
191	0x3c1f6353	0.009728271
192	0x3cc2e742	0.023791913
193	0x3ca59c92	0.02021626
194	0x3cfa8654	0.03058163
195	0x3c71f430	0.0147676915
196	0xbb30e3c7	-0.0026991235
197	0x3cf15a7b	0.02946209
198	0x3bad8df3	0.0052964627
199	0x3cb93258	0.022607014
200	0xbcf339fd	-0.029690737
201	0x3b51ecfa	0.0032032118
202	0xbb80b801	-0.003928185
203	0xbc9cc3bb	-0.0191363
204	0xbcd4f97a	-0.025997866
205	0x3cc1cf14	0.023658313
206	0xbc1ca764	-0.009561393
207	0x3cca4a1c	0.024693541
208	0xbc505982	-0.012716653
209	0x3bb29175	0.0054494687
210	0x3d2e0024	0.042480603
211	0x3d085bb3	0.033290576
212	0x3cbbd723	0.022929734
213	0xbcb9b799	-0.022670554
214	0x3cb85220	0.022500098
215	0xbc89cdf6	-0.016821843
216	0x3c112bf9	0.008860582
217	0x3cbb7854	0.022884525
218	0x3b34b7ed	0.0027575449
219	0x3cb0fcbe	0.021604892
220	0x3d2203b4	0.039554313
221	0x3c873e5b	0.016509226
222	0xbcfb489b	-0.03067427
223	0x3c91397e	0.01772761
224	0xbc041164	-0.008060787
225	0x3c4605e4	0.012086365
226	0xbaf0e37f	-0.0018378346
227	0x3cda0331	0.02661285
228	0xbceaea8d	-0.028676296
229	0xbbb19ecd	-0.005420542
230	0x3c43fae6	0.011961674
231	0x3cf9b996	0.030484002
232	0xbc18fcbd	-0.009337601
233	0x3bbde91a	0.00579561
234	0x3c92194b	0.017834326
235	0x3b9ec0bc	0.004844753
236	0x3d6ea2bb	0.05826066
237	0x3d522424	0.051303998
238	0x3c89fc9d	0.016844088
239	0x3d2b9f19	0.041899774
240	0xbbd0546f	-0.0063577215
241	0x3c7fc494	0.015610833
242	0xbd292336	-0.041293345
243	0x3c86caa9	0.016454058
244	0x3c69d4b3	0.014271903
245	0xbc84b3c5	-0.016199002
246	0x3cb01b2c	0.021497332
247	0xbcd8dcd6	-0.02647249
248	0x3c0ea21a	0.00870564
249	0x3d18439a	0.037173845
250	0x3c1fad1a	0.0097458605
251	0xbc36fcc9	-0.011168667
252	0xbcbca287	-0.023026718
253	0xbb95b33d	-0.004568486
254	0x3c45f142	0.012081446
255	0xbcfe74a3	-0.031061476

layers.0.bias f4 [50]
0	0x3db7730b	0.089574896
1	0xbc9aec35	-0.01891146
2	0xbd764ad3	-0.06012995
3	0x3d3fe7de	0.046851985
4	0x3d945708	0.072431624
5	0x3d644925	0.05573382
6	0xbd812c39	-0.06307263
7	0x3d2379d7	0.039911117
8	0x3d81f7b2	0.06346072
9	0x3d30fcf4	0.043209985
10	0x3dacde83	0.08440878
11	0x3d615658	0.055013984
12	0x3d02cf94	0.031936243
13	0x3d40c8be	0.047066443
14	0xbdad2a59	-0.08455343
15	0x3dc9199c	0.09819338
16	0xbd392089	-0.045197044
17	0x3d7d6e14	0.061872557
18	0x3caf43a9	0.021394568
19	0x3d55a878	0.052162617
20	0xbd9fcb8a	-0.07802494
21	0x3d3bbea3	0.045836102
22	0x3d267427	0.040638115
23	0xbd3750bc	-0.04475473
24	0xbd479171	-0.048722688
25	0x3d29cbb9	0.04145405
26	0x3dd7fd8f	0.10546409
27	0x3d062585	0.032750625
28	0x3c71f188	0.014767058
29	0x3da25baf	0.079276435
30	0xbc46eb07	-0.012140996
31	0xbce9afdf	-0.028526245
32	0x3db9e1de	0.09076284
33	0x3da8ae17	0.0823633
34	0x3e00d551	0.12581374
35	0x3a96a185	0.0011492228
36	0xbc0ec143	-0.008713069
37	0x3ddef5d7	0.10886734
38	0x3d571975	0.052514512
39	0x3aa35ffc	0.0012464519
40	0x3a77939f	0.00094442995
41	0xbc9cfa80	-0.019162416
42	0x3c4502e9	0.01202462
43	0xbb9199a9	-0.0044433665
44	0xbcae7739	-0.021297084
45	0x3e292adc	0.16520256
46	0x3e340c51	0.17582823
47	0x3d6a04ad	0.057133365
48	0x3dbc4944	0.09193662
49	0x3c9efafa	0.019406784

layers.1.weight f4 [50, 50]
0	0xbc6fb6da	-0.014630998
1	0xbdbfc22c	-0.09363207
2	0x3d8c424e	0.06848584
3	0xbe19c1b4	-0.15015298
4	0xbde6a790	-0.11262429
5	0x3e45e1b3	0.19324379
6	0x3e2c0c55	0.1680158
7	0xbe113c0d	-0.14183064
8	0x3d478b77	0.04871699
9	0xbe0e1279	-0.13874234
10	0x3e455b38	0.19273078
11	0xbcc49db3	-0.024000978
12	0xbe06188e	-0.13095304
13	0x3d99e2e7	0.07513981
14	0x3e41aa72	0.18912676
15	0xbd5255dc	-0.051351413
16	0xbd6d0dad	-0.05787437
17	0x3b845766	0.004038739
18	0x3de22838	0.11042827
19	0xbc809b0e	-0.015698936
20	0x3e4717ad	0.19442625
21	0x3e1a7265	0.150827
22	0x3d820fd2	0.06350674
23	0xbd316d27	-0.043316986
24	0x3d24698b	0.040139716
25	0x3d6abf2e	0.05731123
26	0xbe3995e6	-0.18123588
27	0x3c1368d3	0.00899716
28	0x3cb333e2	0.021875326
29	0x3ddf5085	0.1090403
30	0xbe0f0f77	-0.13970743
31	0xbcad0f1b	-0.021125367
32	0x3d2df43f	0.04246926
33	0x3d85b879	0.06529326
34	0x3dcd63a2	0.10028769
35	0x3e17dc15	0.14830048
36	0xbd1266cb	-0.035742562
37	0xbde0f9f0	-0.10985172
38	0x3e3085eb	0.17238586
39	0xbdd713bc	-0.10501811
40	0x3e26cf29	0.16289963
41	0xbc61efa2	-0.013790043
42	0xbd1ae23d	-0.037813414
43	0xbd55aa2f	-0.052164253
44	0x3e010793	0.12600546
45	0x3d22519b	0.039628606
46	0xbe081e20	-0.13292742
47	0x3dca3740	0.09873819
48	0x3d26f9e7	0.04076567
49	0x3cff36d9	0.031154083
50	0x3e88a4c5	0.2668821
51	0x3ce77108	0.02825214
52	0xbda5103a	-0.080597356
53	0xbe6acda3	-0.22930007
54	0xbdedae76	-0.116055414
55	0xbe799148	-0.24371827
56	0x3df43794	0.11924663
57	0x3e78b39e	0.24287269
58	0x3d40832c	0.047000095
59	0xbde8c517	-0.11365717
60	0x3e8f473f	0.27984044
61	0x3e01c7c7	0.12673865
62	0xbe37e528	-0.1795851
63	0xbdc8792d	-0.097887374
64	0x3d3c4866	0.045967482
65	0xbae9992b	-0.0017822137
66	0xbd9aa16e	-0.075503215
67	0x3daed434	0.08536568
68	0xbdba86a1	-0.0910771
69	0xbe7eaa7f	-0.24869727
70	0xbdc63f1f	-0.09680008
71	0x3e8a1516	0.26969212
72	0xbe3362b6	-0.17518124
73	0xbd20f943	-0.039300214
74	0xbe2da4ab	-0.16957347
75	0x3d0dc63f	0.03461289
76	0xbe7ba83f	-0.245759
77	0x3e6fb686	0.23409471
78	0xbe17e9e0	-0.1483531
79	0x3e18fc37	0.14939962
80	0x3d38d5c9	0.045125756
81	0xbdb7ac03	-0.089683555
82	0xbe6e16bf	-0.23250864
83	0x3e469cd1	0.19395758
84	0x3e1945ab	0.14967982
85	0x3e2dbbd6	0.16966185
86	0xbc6b63a6	-0.01436702
87	0x3e22dae3	0.15903811
88	0x3d491e37	0.04910108
89	0x3e116789	0.14199652
90	0x3e8d354d	0.27579728
91	0xbc93d538	-0.018046007
92	0xbdca214a	-0.09869631
93	0x3e19daa5	0.15024813
94	0x3d93cf48	0.0721727
95	0x3e6a9907	0.22909938
96	0x3e320f84	0.17388731
97	0x3dc41a65	0.09575347
98	0x3d199d3c	0.037503466
99	0xbcdf6a22	-0.027272288
100	0xbddee669	-0.10883791
101	0xbd39befa	-0.045348145
102	0x3e52115a	0.20514432
103	0xbd627138	-0.055283755
104	0x3defc61b	0.117077075
105	0xbde0ca81	-0.109761246
106	0xbccb27bd	-0.024799222
107	0x3df73919	0.120714374
108	0xbd07bfcb	-0.033141892
109	0x3de3f872	0.111313716
110	0xbd8537c7	-0.06504779
111	0x3dba1bfe	0.0908737
112	0x3daa862b	0.08326372
113	0x3cf58428	0.029970244
114	0x3db202b6	0.08691923
115	0x3d40e3c7	0.047092225
116	0x3d77cfdd	0.06050097
117	0xbc6514ba	-0.013981992
118	0x3890f0f1	6.911334e-05
119	0x3da99cb5	0.082818426
120	0x3db72bda	0.08943911
121	0x3c984947	0.018589629
122	0xbd7ad1c1	-0.061235193
123	0xbd5be3cc	-0.05368404
124	0x3e5f0b2f	0.2178161
125	0xbe13db38	-0.14439094
126	0x3de51498	0.111855686
127	0x3ddd7403	0.10813143
128	0x3d1586ae	0.036505394
129	0x3d676059	0.05648837
130	0x3e436de5	0.1908489
131	0x3c6fb0b4	0.014629532
132	0x3d96fa3f	0.073719494
133	0x3e42b5eb	0.19014709
134	0x3d556f5c	0.052108154
135	0x3d92715b	0.07150527
136	0xbe10a983	-0.14127164
137	0xbe2e7752	-0.17037705
138	0xbd733af4	-0.059382394
139	0x3d166b7f	0.03672361
140	0xbcd95019	-0.026527451
141	0xbe0097ac	-0.12557858
142	0xbd0698e1	-0.03286064
143	0x3dc0c9cb	0.09413489
144	0xbd3922ee	-0.045199327
145	0xbe1a8950	-0.15091443
146	0x3dc0e3bf	0.09418439
147	0xbcc3b165	-0.0238883
148	0xbda259c2	-0.07927276
149	0x3dad4e5e	0.08462213
150	0x3dcf183d	0.10112045
151	0xbd3b32d1	-0.04570276
152	0xbdcb9e8f	-0.09942352
153	0x3d3619a0	0.04445803
154	0xbd1f5e22	-0.03890813
155	0x3e86c740	0.2632389
156	0xbdccbad7	-0.09996574
157	0xbdd8109d	-0.10550044
158	0xbdd59c1b	-0.104301654
159	0x3e135576	0.1438807
160	0x3e4bfb59	0.199201
161	0xbe853622	-0.26017863
162	0xbe2b9f47	-0.16759978
163	0x3da584f5	0.08082
164	0x3e1ad3f7	0.1511992
165	0x3d26dab7	0.040735926
166	0x3e1347de	0.14382884
167	0x3e32234e	0.1739628
168	0x3bae9d54	0.0053288136
169	0xbe367512	-0.17818096
170	0xbdb079c2	-0.086169735
171	0x3de6bde3	0.11266687
172	0xbd6dcaa5	-0.058054585
173	0x3dd98347	0.10620742
174	0x3e6fd37b	0.23420517
175	0xbe08416a	-0.13306203
176	0xbd24efe9	-0.04026786
177	0x3c786bfe	0.015162466
178	0x3c0d6289	0.00862945
179	0xbd0bb6c2	-0.03410984
180	0x3d8d7768	0.069075406
181	0x3d2789ee	0.040903024
182	0x3d38e792	0.045142718
183	0xbdb97ffa	-0.09057613
184	0x3d9ce6da	0.07661219
185	0xbd0ad8c3	-0.033898126
186	0x3d8ac851	0.067764886
187	0x3e556a17	0.20841251
188	0x3d097237	0.03355619
189	0x3e0b6c97	0.13615642
190	0x3d87b4f3	0.0662631
191	0xbdabc0f6	-0.08386414
192	0xbdd831c1	-0.10556365
193	0x3baebd22	0.005332605
194	0x3d8767f4	0.06611624
195	0x3d50fee6	0.05102434
196	0xbe388ad6	-0.18021712
197	0x3e02ef8c	0.12786692
198	0xbd3bed77	-0.04588076
199	0x3d56edf3	0.05247302
200	0x3e4ded8e	0.20110151
201	0x3bc01e8f	0.005863018
202	0xbe2e5a27	-0.17026578
203	0x3d53b58a	0.0516868
204	0x3b25d08e	0.002530131
205	0x3c8fcc50	0.017553478
206	0x3e4bc30c	0.19898623
207	0x3de93e1c	0.113887995
208	0x3e053801	0.13009645
209	0xbe6d08e3	-0.23147921
210	0x3e9da382	0.3078881
211	0x3e5b5b25	0.21421488
212	0xbdcfd093	-0.10147204
213	0x3d641e72	0.055693097
214	0x3e3ccc0d	0.18437214
215	0xbe635017	-0.2219852
216	0xbd6f9a86	-0.058496974
217	0x3db3f5b0	0.087870955
218	0xbd1ecd97	-0.038770285
219	0xbdba3aad	-0.09093223
220	0x3d524483	0.05133487
221	0x3ddc1b0d	0.10747347
222	0xbe77a091	-0.24182345
223	0xbde79318	-0.11307353
224	0x3e45a25b	0.19300215
225	0xbd80a062	-0.062805906
226	0xbd53527d	-0.05159234
227	0xbe18cf41	-0.14922811
228	0x3cb61f93	0.022231853
229	0x3dc10417	0.09424608
230	0x3e758fec	0.23980683
231	0xbd5167b1	-0.05112428
232	0x3d1fd157	0.039018
233	0xbdaee757	-0.08540218
234	0xbdd7451f	-0.10511231
235	0xbdf31f68	-0.11871225
236	0xbd23b0b0	-0.039963424
237	0x3e23e5a4	0.1600557
238	0xbcacdb2d	-0.021100605
239	0x3dbd26f0	0.09235942
240	0x3e459168	0.1929375
241	0x3e2e7e26	0.1704031
242	0x3dd84505	0.105600394
243	0xbe0822b8	-0.13294494
244	0x3d466eed	0.04844563
245	0x3d7e7793	0.062125754
246	0xbe76cd5b	-0.24101774
247	0xbe16e5d7	-0.14736114
248	0xbcec4902	-0.028843407
249	0x3dc69ee6	0.09698276
250	0xbe2b48d2	-0.16726997
251	0xbde38c2f	-0.11110722
252	0xbdfeb6f3	-0.124372385
253	0x3d6bf5b1	0.057607356
254	0xbd914ee3	-0.070951246
255	0x3d622835	0.055214126

layers.1.bias f4 [50]
0	0x3cf7c00c	0.030242942
1	0x3e323844	0.17404276
2	0x3d5f074a	0.05445031
3	0x3d3ec29f	0.046572324
4	0x3dd5af6f	0.10433852
5	0x3e2b91f3	0.16754894
6	0xbd884649	-0.06654031
7	0x3c58637f	0.0132073155
8	0x3e585160	0.21124792
9	0x3d31dee3	0.043425452
10	0xbd925ee8	-0.07147008
11	0xbdf79407	-0.12088781
12	0x3e1789dd	0.14798684
13	0x3dafd246	0.08585028
14	0xbe17ccbd	-0.14824195
15	0xbe05435e	-0.1301398
16	0x3e446d44	0.19182307
17	0xbd917e99	-0.07104225
18	0xbd01f489	-0.031727348
19	0x3e0585ff	0.13039397
20	0x3dd9ac89	0.106286116
21	0x3dd8e499	0.105904765
22	0xbc8b35a5	-0.016993353
23	0x3cf68b9a	0.030095864
24	0xbc82737d	-0.01592421
25	0xbd9e6464	-0.07733992
26	0x3d83bfeb	0.0643309
27	0x3dad9054	0.08474794
28	0xbd79bb8c	-0.060969874
29	0xbe096502	-0.13417438
30	0xbc8f2a52	-0.017476235
31	0xbd78ffa1	-0.06079066
32	0x3e00ded5	0.12585004
33	0xbdec3615	-0.11533753
34	0x3d4444b3	0.04791708
35	0xbe2d945d	-0.16951127
36	0xbe0e2027	-0.13879453
37	0xbd69a396	-0.057040773
38	0x3e652a32	0.22379377
39	0xbdf8567a	-0.12125869
40	0x3e1f1af4	0.15537626
41	0xbda130e0	-0.0787065
42	0xbdf0f030	-0.11764562
43	0x3ebaf6fd	0.36516562
44	0x3a9d4e5e	0.0012001505
45	0xbe04ed61	-0.12981178
46	0x3da9dcac	0.08294043
47	0x3d36ed48	0.044659883
48	0x3cd48a81	0.02594495
49	0x3e1bb073	0.15204029

layers.2.weight f4 [10, 50]
0	0x3d851592	0.06498255
1	0xbe4b8c60	-0.19877768
2	0x3db2fbec	0.087394565
3	0xbe52440b	-0.20533769
4	0x3e84160a	0.25798064
5	0xbe2913ff	-0.16511534
6	0x3bcaf784	0.006194057
7	0xbe958cd1	-0.29208997
8	0xbd3a1d99	-0.045438383
9	0xbddc562d	-0.10758624
10	0x3e5a1ecc	0.2130081
11	0x3d3c8d1a	0.046033002
12	0x3ee87e88	0.45409036
13	0x3da53670	0.08067024
14	0x3e0592a2	0.13044217
15	0x3e01b1c5	0.1266547
16	0xbeb92b45	-0.36165825
17	0x3db0f4b5	0.08640424
18	0x3ed09a0c	0.40742528
19	0xbd0b539c	-0.034015283
20	0x3eb4dde4	0.3532554
21	0x3d6173a5	0.055041928
22	0x3e321051	0.17389037
23	0x3e4f8a11	0.20267512
24	0xbea086fc	-0.31352985
25	0xbd5f4a2f	-0.054514106
26	0xbdcd23f4	-0.10016623
27	0xbe88d57d	-0.2672538
28	0x3bd76699	0.00657351
29	0xbdbf3dec	-0.093379825
30	0x3dd30fff	0.103057854
31	0xbdf08db8	-0.11745781
32	0xbdc72370	-0.09723556
33	0xbd5fd4b7	-0.05464622
34	0xbe7e51d8	-0.24835908
35	0x3e6b2cde	0.22966334
36	0xbdff447e	-0.12464236
37	0x3eeb4b29	0.4595578
38	0xbe5e8163	-0.21729045
39	0xbdd540d3	-0.10412755
40	0x3dba1ff3	0.09088125
41	0xbe4c9d82	-0.1998196
42	0x3da2d983	0.07951643
43	0xbf052e5c	-0.52023864
44	0xbd2f919f	-0.042863484
45	0xbeaf3dd4	-0.3422686
46	0xbea6622a	-0.32496768
47	0x3eb7dac2	0.35909086
48	0xbd2d7ad8	-0.04235348
49	0x3d94fe6b	0.07275089
50	0x3dd92d5f	0.10604357
51	0x3ea574e7	0.32315752
52	0x3d8d5ebd	0.069028355
53	0xbe4e3e9d	-0.20141073
54	0xbec78b3c	-0.38973415
55	0xbe2faef5	-0.17156585
56	0xbd4d4357	-0.05011305
57	0xbc344746	-0.011003321
58	0xbebc313c	-0.36756313
59	0x3ebcc57b	0.36869416
60	0xbe8e84b1	-0.2783561
61	0xbd9f0a15	-0.07765595
62	0xbd716145	-0.058930654
63	0x3e0763b8	0.13221633
64	0xbe6fda00	-0.23423004
65	0x3d3a78c0	0.045525312
66	0x3dc5b7e2	0.096542135
67	0xbd1b8018	-0.037963957
68	0xbeae8ebb	-0.3409327
69	0x3e286df9	0.16448201
70	0x3d84c015	0.06481949
71	0xbe04bc1c	-0.12962383
72	0xbc8a1e00	-0.016860008
73	0xbea142ba	-0.3149622
74	0x3e783d3f	0.24242114
75	0x3cd76895	0.026294986
76	0x3e673e66	0.22582397
77	0x3e3973f5	0.1811064
78	0x3d3ac0c7	0.045594003
79	0x3d8f0aaa	0.06984456
80	0xbea44fa1	-0.32092002
81	0xbdc1e1bd	-0.09466884
82	0x3e129b8e	0.14317152
83	0xbd5e3f43	-0.05425955
84	0x3ee52b38	0.44759536
85	0xbe0e8198	-0.13916624
86	0x3e07d1c7	0.13263617
87	0xbe661fee	-0.22473118
88	0x3e83fcdc	0.25778854
89	0x3ce2849d	0.027651126
90	0x3e5bd4df	0.21467923
91	0x3d36382a	0.044487156
92	0xbc6ba1c4	-0.01438183
93	0x3e4a229f	0.1973977
94	0xbc3faa66	-0.011698341
95	0x3dc125bd	0.09431026
96	0x3e2be70d	0.16787358
97	0xbeb5c130	-0.35498953
98	0x3d84a9cc	0.06477699
99	0xbed898cc	-0.42304075
100	0x3e3710f2	0.17877558
101	0xbe415305	-0.18879326
102	0x3c48d396	0.012257477
103	0x3dde1202	0.108432785
104	0x3e952877	0.29132435
105	0x3d3db3c7	0.046314027
106	0xbd65bd34	-0.05608864
107	0xbebfdab7	-0.37471554
108	0x3d91b9b3	0.071154974
109	0x3e4eda77	0.20200525
110	0x3df1e631	0.11811484
111	0x3c88824f	0.016663698
112	0xbcf0a9dc	-0.02937787
113	0x3e8e17a9	0.27752426
114	0x3d7be3e8	0.061496645
115	0x3da73bcb	0.081657015
116	0x3e11fd80	0.14256859
117	0x3d2cb43d	0.042164076
118	0x3de9b0ea	0.11410697
119	0xbe46f929	-0.19430985
120	0x3e53d269	0.20685734
121	0xbe5e8cd7	-0.21733414
122	0xbecb29fd	-0.39680472
123	0x3dd87d98	0.1057083
124	0x3e630b6d	0.22172327
125	0xbca10d71	-0.01965973
126	0x3c5cd8d3	0.013479429
127	0xbeb8c5ad	-0.36088315
128	0xbd968616	-0.073497936
129	0xbdac2180	-0.08404827
130	0xbe3dcb0a	-0.18534485
131	0xbda7e8ca	-0.08198698
132	0xbd98f5e9	-0.07468779
133	0x3e33ed2b	0.17570941
134	0x3ebdd393	0.3707548
135	0x3ea62196	0.324475
136	0xbdef570a	-0.11686523
137	0x3d9b5148	0.075838625
138	0xbe1fb5f5	-0.15596755
139	0x3dc1861a	0.09449406
140	0xbe8f52d0	-0.27992868
141	0xbd6bf7ea	-0.057609476
142	0x3ddc216e	0.10748564
143	0xbcb044b2	-0.021517131
144	0xbe235c58	-0.15953195
145	0x3eb12f8b	0.34606585
146	0x3e84a10f	0.25904128
147	0x3eb97525	0.36222187
148	0xbdc3969b	-0.0955021
149	0xbe34679d	-0.1761765
150	0xbe842426	-0.2580883
151	0xbe512594	-0.20424491
152	0x3e8d9e32	0.27659756
153	0xbe432ea9	-0.19060768
154	0xbe67e899	-0.22647323
155	0xbd190971	-0.03736252
156	0x3e0dbfc8	0.1384269
157	0x3dd33f44	0.10314801
158	0x3da7f0c9	0.08200223
159	0xbcc98def	-0.024603812
160	0x3d40f775	0.047110993
161	0xbd873d5a	-0.06603499
162	0xbe737a3f	-0.23777102
163	0x3e6dbca0	0.23216486
164	0xbda055b7	-0.07828849
165	0x3e01dd47	0.12682067
166	0x3eba3eb9	0.3637598
167	0x3cdd8148	0.027039185
168	0xbd7f94b2	-0.062397666
169	0xbd6cdde3	-0.057828795
170	0x3ec45505	0.38346115
171	0xbda1894d	-0.07887516
172	0xbe216e0a	-0.15764633
173	0x3d61cd96	0.055127703
174	0x3ce8a896	0.0284007
175	0x3d180b02	0.037119873
176	0x3e60690a	0.21915069
177	0x3e8df119	0.27723005
178	0x3c5973a1	0.013272197
179	0x3e0affeb	0.13574187
180	0xbdb4b0f4	-0.08822814
181	0x3d568bed	0.052379537
182	0xbe223799	-0.15841521
183	0xbe35277c	-0.17690843
184	0xbe97c9f2	-0.2964626
185	0xbdf0c436	-0.11756174
186	0xbd522898	-0.051308244
187	0x3df81630	0.12113607
188	0x3ee3bc8b	0.44479784
189	0x3e05868a	0.13039604
190	0x3e683069	0.22674717
191	0x3cdca6f0	0.02693507
192	0x3e043411	0.12910487
193	0xbed28d39	-0.4112337
194	0xbe7a5f24	-0.24450356
195	0x3ea8c397	0.32961723
196	0x3d25ace2	0.040448077
197	0x3ec5affc	0.38610828
198	0xbdc0dced	-0.09417138
199	0xbe86be96	-0.2631728
200	0xbe227b4b	-0.15867345
201	0xbe09f11e	-0.13470885
202	0xbdee6209	-0.116397925
203	0xbd96a9a1	-0.07356573
204	0x3d135ad4	0.035975292
205	0x3e9c084c	0.3047508
206	0xbd402de2	-0.046918757
207	0x3e41dc83	0.18931775
208	0x3e7072fa	0.2348136
209	0xbe113217	-0.14179264
210	0x3dc1b298	0.09457892
211	0x3cb39080	0.021919489
212	0xbe97ed7b	-0.2967337
213	0xbebc99fb	-0.36836228
214	0x3ea2c957	0.31794235
215	0x3c8dc6e8	0.01730676
216	0x3ddd206b	0.10797199
217	0x3dd470c0	0.10373068
218	0xbe9ab90f	-0.30219314
219	0xbe3bc2a3	-0.18335967
220	0xbded1c8c	-0.115777105
221	0xbe092b2e	-0.13395378
222	0x3ec3f70f	0.38274428
223	0x3ebe545e	0.37173742
224	0xbd8ff1ff	-0.07028579
225	0x3d3a740a	0.04552082
226	0xbe4c43e3	-0.19947772
227	0xbeadb73f	-0.33928868
228	0x3dd74910	0.105119824
229	0x3dd05a18	0.10173434
230	0x3ee84b6a	0.45370036
231	0xbd6d185f	-0.05788457
232	0xbe5c774c	-0.21529883
233	0xbe178c92	-0.14799717
234	0xbe3377cf	-0.17526172
235	0xbe3b4d19	-0.18291129
236	0x3dfc289f	0.12312435
237	0xbeb3e517	-0.3513572
238	0xbe5f43ea	-0.21803251
239	0x3caba15c	0.020950966
240	0xbba38ce9	-0.004991163
241	0x3ce1d77d	0.027568573
242	0xbded9bee	-0.11602007
243	0x3eea4b01	0.45760348
244	0x3e8cca4d	0.27498093
245	0xbe448957	-0.19193016
246	0xbe1f9ba4	-0.15586716
247	0xbe78e5c5	-0.243064
248	0x3edb8b74	0.42879832
249	0xbda04799	-0.07826156
250	0xbe7bd20c	-0.24591845
251	0x3e6a027e	0.22852513
252	0xbe01e5e8	-0.12685359
253	0xbeabede7	-0.33579943
254	0x3e3b7ae5	0.183086
255	0x3c89c128	0.016815737

layers.2.bias f4 [10]
0	0xbe152937	-0.14566503
1	0x3d48c212	0.049013205
2	0xbd4644b7	-0.048405375
3	0xbdcd62ac	-0.10028586
4	0x3e94f60f	0.29093978
5	0x3e6f091c	0.23343319
6	0x3d14f9c2	0.036371
7	0x3e0fc542	0.14040092
8	0xbe933bb7	-0.28756496
9	0x3e2b4bfa	0.16728202
