model_dicts(.onnx)/10-10-10-dict.onnx (onnx, 39590 bytes, 6 tensors)

model.layers.0.bias f4 [10]
00000000: b87d debc b310 0e3d 25bd a7bc ee4e 75bc
00000010: a4e6 2a3c 9cb0 113c 5201 36bc 40b5 8fbc
00000020: 51d3 073d cbc8 0ebd
-0.027159557 0.034683894 -0.020475933 -0.014972432 0.010430966 0.008892205 -0.011108713 -0.017542481
0.03316051 -0.03485946

model.layers.0.weight f4 [10, 784]
00000000: 3ccb dabc d8b2 093c 780f 37bc a7f3 0cbd
00000010: 5cf2 52bc fbdb 103d 20a2 9abc 01b1 043d
00000020: d489 c1bb c0c4 6eba fc7b 823c aaea f03c
00000030: 83eb cdbc 2625 a93c 700d f9bb bef7 f73c
00000040: cf36 06bd 54a1 b6bb 4cb0 d13c eebe ca3c
00000050: b5f4 e6bc c008 9e3b d1f5 0d3d 9459 06bd
00000060: 0348 81bc 477e 063d 9811 6a3c 3af1 d93c
00000070: 602a b93a 591d 003d 969c 933c c610 c53c
00000080: 00ac 4dbc 4f08 113d e0d8 fd3a d692 f93c
00000090: fc15 24bc 8323 0f3d a47f c3bb c092 a33a
000000a0: da70 9fbc ae9d 893c 9e05 bbbc ca4e e0bc
000000b0: 1a74 88bc 3667 9e3c 6a03 e63c 05a6 9abc
000000c0: 9036 6a3c cb13 103d 9cad d1bb 20cd cc3c
000000d0: a487 09bd 6e6d 89bc 8363 83bc b65b f33c
000000e0: 6eeb a0bc 2829 80bb 5b3a 053d 0d8c 013d
000000f0: 7a8c 96bc fcf9 853c d69c cd3c 814a fbbc
00000100: f063 efbb 4822 833b a866 843c b046 6a3c
00000110: c3b3 c1bc a0df 513c 5a71 b6bc 3337 0fbd
00000120: 3e99 873c ea3c ccbc df05 0d3d 6aa0 c73c
00000130: abb9 09bd 123b 04bd 0421 853c 0e0f ccbc
00000140: f080 0b3b 225a e23c fede c33c 380c cc3c
00000150: 6a05 fa3c 5ca1 833c 6896 fabc b31c fbbc
00000160: 2aa7 9fbc 60bd 06bb 15aa b8bc 70f7 0b3b
00000170: a07f c9bc b323 e2bc d920 113d 4eff 43bc
00000180: 0051 e7ba 9abd a7bc aa20 4cbc 205f 53bc
00000190: 40b2 283a 50da 9e3c 84ce 643c ca13 60bc
000001a0: 2972 013d 0080 263b 6c85 b93c e55c c1bc
000001b0: 9e75 90bc d894 cabc 8eb5 a9bc 00b5 c3b9
000001c0: ba21 da3c a6a0 f33c e618 08bd 7f9e 103d
000001d0: 65a1 b7bc ba20 d43c 2056 d23a fe21 b9bc
000001e0: aeff 0fbc e76b 023d 9066 95bc 2768 10bd
000001f0: c023 9a3c 9019 08bd e3d5 c6bc 5813 be3b
00000200: e0d7 3bbc 002f 3d3c f3c1 dcbc f399 fbbc
00000210: ff7c 0f3d fa04 c2bc c460 3a3c d8ec 05bd
00000220: c645 e43c d545 e2bc b0f8 ca3c 602a 3e3b
00000230: 506a c0bc 0ee0 43bc 77f8 8abc 3e55 f93c
00000240: a618 f83c 20de dfbc 549d a1bb 308b 86bb
00000250: 5ef8 f43c a875 d23c d106 073d c062 493a
00000260: 76ee ee3c 74f5 573c aa0f 3dbc 58d3 4d3c
00000270: 7843 1b3c 5459 633c 6002 183b 221c 853c
00000280: aae6 c73c 981e 823c 1390 09bd eac4 52bc
00000290: 06df 64bc 3919 0f3d 38b3 503c 2ae4 c1bc
000002a0: 406a 76bc 0627 20bc 68ef cc3b 606e 53bb
000002b0: 5232 ef3c c0f4 fa3b 1a44 a73c c840 993c
000002c0: e3c6 ddbc 92c3 ef3c 1524 f3bc fa61 ee3c
000002d0: 28d8 5e3c e74e 8abc 005d 053b 7804 f5bb
000002e0: e086 a43a 28e7 c3bc 8e82 fd3c 2020 c23c
000002f0: 1c12 afbb 55c9 babc 9e19 803c d25d 56bc
00000300: 833e e7bc 465b ae3c c0fa c6bc 9282 dc3c
00000310: 886e 123c a0b9 0ebd 2fa2 023d 7b6e 0dbd
00000320: 009a 6f3a 8e77 3ebc 4894 93bb b89b 27bc
00000330: ee84 bbbc 8e32 69bc 6ac3 84bc b841 4dbc
00000340: 4071 823b dc2b 5f3c 02e0 823c abf3 043d
00000350: 78de 08bc c600 6ebc 67f6 103d 4255 eb3c
00000360: 368a 9d3c 2334 9fbc 60fc 783b b03d 7b3c
00000370: 0080 7637 b890 24bc 44f0 5d3c f826 10bd
00000380: 4e4e b93c 8c40 08bd eaa1 f53c d8ca 973b
00000390: a08e 2dbb 39a9 093d 13e2 0e3d 30b0 643b
000003a0: 5b06 0b3d 25e2 f6bc 6070 55bb d02a d1bc
000003b0: d28b 03bd 562d eb3c 5876 533c bec8 abbc
000003c0: 1409 fabb 4763 8bbc 60c2 adba 7045 083b
000003d0: 8895 f7bb 607f ecba fa49 c8bc 804f e3bb
000003e0: eac6 eebc 3eb2 10bd b8bd b0bb dde6 09bd
000003f0: a038 d5bc 00c8 7c3b 6a37 3bbc 6262 cc3c
-0.026708238 0.008404456 -0.011173122 -0.034412052 -0.012875166 0.03536604 -0.018876135 0.032395367
-0.005906323 -0.00091082975 0.015928261 0.029408772 -0.025136715 0.020647597 -0.007600479 0.0302695
-0.032767113 -0.005573431 0.02559676 0.024749245 -0.028192857 0.0048228204 0.034658257 -0.032800272
-0.015781408 0.03283527 0.014286421 0.026604284 0.0014127009 0.031277988 0.018019002 0.02405585
-0.012553215 0.035408314 0.0019367002 0.030465525 -0.010015007 0.034945976 -0.0059661437 0.0012479648
-0.019462992 0.01679882 -0.022829827 -0.02738132 -0.016656924 0.019336324 0.0280778 -0.018877992
0.014295235 0.035175126 -0.0063988697 0.025000155 -0.033576623 -0.016775813 -0.016038662 0.029706817
-0.019643512 -0.003911156 0.032526355 0.031627703 -0.018377531 0.016354553 0.0250992 -0.030675175
-0.0073056147 0.0040018894 0.016162232 0.01429908 -0.023645287 0.012809664 -0.022270847 -0.03496475
0.016552564 -0.02493139 0.034429427 0.024368484 -0.033624332 -0.032282896 0.016251095 -0.024909522
0.002128657 0.02763087 0.023910042 0.02490817 0.03052016 0.016068153 -0.030589297 -0.030653333
-0.01948889 -0.0020559654 -0.022542039 0.00213572 -0.02459699 -0.027604913 0.035431717 -0.011962725
-0.0017648041 -0.020476151 -0.01245896 -0.012901098 0.0006435253 0.019391209 0.013965253 -0.013676593
0.031603012 0.0025405884 0.022646628 -0.023603866 -0.01763421 -0.024729177 -0.020716455 -0.00037328154
0.02662741 0.02973969 -0.03322687 0.035307404 -0.022415826 0.025894511 0.0016047396 -0.022599217
-0.008788986 0.031841185 -0.018237382 -0.035255577 0.018815875 -0.033227503 -0.024271911 0.005800646
-0.011465043 0.01154685 -0.026947951 -0.030713057 0.035031315 -0.023684014 0.01137561 -0.032696575
0.027865302 -0.02762119 0.024776787 0.0029016957 -0.023488194 -0.011955274 -0.01696418 0.030436154
0.03028519 -0.027327597 -0.004932085 -0.004105948 0.029903587 0.025690868 0.032965485 0.00076822564
0.029166441 0.013181079 -0.011539379 0.012562595 0.009476535 0.013876278 0.0023194775 0.016248766
0.024401981 0.015883729 -0.033584666 -0.012864331 -0.013969189 0.034936164 0.012738042 -0.023668367
-0.01503998 -0.009774929 0.0062541254 -0.0032261834 0.0291988 0.007658571 0.020418216 0.018707648
-0.027072376 0.02926806 -0.029680291 0.029099453 0.01360134 -0.016883327 0.0020349622 -0.0074773394
0.0012552403 -0.023913935 0.030946042 0.023696959 -0.005342735 -0.02280108 0.015637215 -0.013083892
-0.02822805 0.021283757 -0.024289489 0.02691773 0.0089374855 -0.034844995 0.03189295 -0.03452919
0.0009140074 -0.011625184 -0.0045037605 -0.010229997 -0.022890534 -0.014233245 -0.016206462 -0.012527876
0.0039807856 0.013621297 0.015975956 0.032458942 -0.008353822 -0.014526552 0.035391238 0.028727178
0.019230943 -0.01943404 0.0037992224 0.015334532 1.4692545e-05 -0.010044269 0.013546053 -0.035193413
0.022620346 -0.03326468 0.029984433 0.004632335 -0.0026482716 0.03360865 0.03488357 0.0034895055
0.033941608 -0.030137131 -0.0032568201 -0.02553311 -0.032115765 0.028708141 0.012906633 -0.020969745
-0.0076304767 -0.017015113 -0.0013256781 0.002079334 -0.0075556673 -0.0018043332 -0.024449337 -0.0069369674
-0.029147584 -0.035326235 -0.00539371 -0.033667434 -0.026027977 0.0038571358 -0.011426786 0.024949256

model.layers.1.bias f4 [10]
00000000: 40bd bb3d 7ba8 863e baec 033e 268a 353e
00000010: d8eb 4d3d 5865 293d 69cd 9b3e eea2 143e
00000020: 88c7 103e 7bb6 8b3e
0.09166956 0.26300415 0.12883273 0.1772848 0.050273746 0.041356415 0.30430153 0.14515278
0.14138615 0.2728766

model.layers.1.weight f4 [10, 10]
00000000: 14b8 30be 8547 943e 350e 81be 821c 273e
00000010: b072 723d 62ab 95bd 2080 19bd afcb 813e
00000020: d84c 213e fa39 41be a851 75be c832 153d
00000030: d638 3e3e 68fc a7bd 40eb 41bd 061e 94bd
00000040: c42b 82be 6094 2c3c 0033 603c f60a a6bd
00000050: 284b b6bd ea58 42be 5402 383e 0e14 643e
00000060: f2da 9abd ac60 0dbe 1c78 eb3d 12f1 94be
00000070: da46 aabd 804a 49be d632 09be 0e7b 8dbe
00000080: d075 f8bd fafb 2a3e 254e 9c3e ce06 25be
00000090: aca0 8abe 29be 963e 40d1 ee3b abfe 2dbe
000000a0: 6047 c53c 327a 133e d1b5 96be 21be 803e
000000b0: b88c 2f3d 2294 b1bd 824d 68be a4f4 43be
000000c0: 6e4d 0ebe 6c6d f6bd 1a22 c3bd d361 8dbe
000000d0: 0d8f 0dbe 38af 0cbd e0ad 86bd 4f27 9d3e
000000e0: aee3 88be a3c7 4cbe 8b78 41be b8c5 7fbd
000000f0: e8e0 3dbd 0bcb 8bbe e593 31be c0f0 dcbb
00000100: b6fb 5e3e ce8f 3d3e 826b 643e 8d62 8c3e
00000110: c031 9a3c 8468 ef3d bb19 8a3e 2c30 f3bd
00000120: 5062 283e f27f 423e 4090 5e3d 8c49 50be
00000130: 1c22 ebbd 5ce3 9ebe e4a5 0c3e ca70 8dbe
00000140: 56e3 793e 00f6 b93a 2ef7 a2bd 6966 8fbe
00000150: c325 873e 683e 013d a22f 623e c8fb 8ebd
00000160: 87f3 9f3e e0d5 a83d f74a 8e3e 2c29 e63d
00000170: 04a1 e1bd 16a6 22be d568 33be 2066 05bc
00000180: e0ce 56bc 4c90 c13d 8afd 443e 6e00 c4bd
-0.1725772 0.28960815 -0.25206152 0.16319469 0.059191406 -0.07308079 -0.037475705 0.2535071
0.1575197 -0.18869773 -0.2395693 0.036425382 0.18576369 -0.082024395 -0.047343493 -0.07232289
-0.25424016 0.010533422 0.013684034 -0.081075594 -0.08901054 -0.1897923 0.17969638 0.22273275
-0.07561292 -0.13806409 0.114975184 -0.29090172 -0.08314295 -0.19657326 -0.13398299 -0.27632946
-0.12131846 0.16697684 0.3052837 -0.16115877 -0.27075708 0.29441956 0.007288128 -0.1699168
0.024081886 0.14402083 -0.2943559 0.25145057 0.04285881 -0.08670832 -0.22685817 -0.19136292
-0.13896725 -0.12032589 -0.09527989 -0.27613696 -0.13824101 -0.03434679 -0.06576133 0.30694053
-0.26736206 -0.1999803 -0.1889364 -0.06244442 -0.046357065 -0.27303347 -0.17341574 -0.006742567
0.21775708 0.18511888 0.22306636 0.27418938 0.01882255 0.11689857 0.26972756 -0.118744224
0.16443753 0.1899412 0.054336786 -0.20340556 -0.11481115 -0.31032836 0.13735157 -0.27625114
0.24403128 0.0014187694 -0.07957302 -0.2800782 0.26395997 0.031553656 0.22088483 -0.06981617
0.31240484 0.082439184 0.2779157 0.11238322 -0.110170394 -0.1588367 -0.17520459 -0.008142024
-0.013110846 0.094513506 0.19237342 -0.095703945

model.layers.2.bias f4 [10]
00000000: 0ccd 3bbe ffd3 0bbe cd14 87be 461f 493e
00000010: 3099 4bbd 4668 7bbe fea2 8abe 7c01 9abe
00000020: f9b8 8d3e 209a 563c
-0.18339938 -0.13655089 -0.26383057 0.19640836 -0.049706638 -0.24551496 -0.27077478 -0.30079257
0.27680185 0.01309827

model.layers.2.weight f4 [10, 10]
00000000: 108a 993d ac70 a0be dab6 a0be cb13 0abe
00000010: 31a8 943e 9f9b 71be d9d2 843e 04c8 bc3d
00000020: 3094 1d3e d0f5 96bc 709d f63c 40a9 bcbc
00000030: 925d 3d3e 14ab e5bd fe2a 253e 357a 853e
00000040: bee5 053e 7ca0 31be 9a37 bbbd 689a 95bd
00000050: 587c 7a3d f51b 94be 103b 81bd 349c 933d
00000060: 6872 6cbd 422a 313e 4a40 69be 78ba 0ebd
00000070: 2078 523d 10fe 38bd 43cd 87be 267f 93be
00000080: c8fe bf3d d838 1ebe 6cf7 5fbe 3045 a13d
00000090: 008e 88ba 477a 9fbe 2b00 88be d29f 88be
000000a0: 1c91 1c3e 1496 813d 4c94 223e 42c1 18be
000000b0: 1adf 8dbe c0f9 783d 54d1 2abe 1069 d53c
000000c0: 673c 0bbe 90a3 d8bc 6fe8 8b3e d09f 69be
000000d0: 07ed 963e 9059 6dbe 9611 693e 98f2 6d3d
000000e0: a255 6fbe 00d4 69bb 5953 9e3e 8e6f 4fbe
000000f0: 8eca 6e3e bc88 bcbd adeb 2abe 80d1 483d
00000100: e243 23be f46b ffbd 0986 893e 6eb9 7e3e
00000110: 16d8 25be f631 3fbe e03b ea3d 1abe 113e
00000120: 34a5 b6bd 6243 c5bd 04f9 103e 50c0 87be
00000130: c0c2 94be dc0d 58be c033 9c3d ac98 b93d
00000140: 746b d0bd 96d6 553e ce85 2bbe 1534 86be
00000150: b0f9 02be df29 8c3e 60bd 2a3e 120b 6c3e
00000160: 9477 fd3d 223e 783e 00ba eeba 2052 853d
00000170: 4abe 4f3e f45b e73d 64d4 913d 8d7f 8c3e
00000180: 48e0 353e adc4 8b3e 44df a53d 4005 b93b
0.074970365 -0.31335962 -0.31389505 -0.13484113 0.2903457 -0.23594521 0.25942114 0.092178375
0.1538856 -0.01842776 0.030104369 -0.023029923 0.18492725 -0.11214271 0.16129681 0.260698
0.13075921 -0.17346376 -0.091414645 -0.07304841 0.06115374 -0.2892758 -0.063100934 0.07207528
-0.057726294 0.17301276 -0.2277843 -0.0348458 0.05138409 -0.045164168 -0.2652379 -0.28807944
0.093747675 -0.15451372 -0.21871728 0.078745246 -0.0010418296 -0.31147978 -0.26562628 -0.26684433
0.1528973 0.06327453 0.15876883 -0.14917472 -0.27709275 0.060785055 -0.16681415 0.026051074
-0.1359726 -0.02644518 0.2732577 -0.2281487 0.29477713 -0.23178697 0.22760615 0.058092684
-0.2337251 -0.003567934 0.30922964 -0.20257398 0.23319456 -0.092057675 -0.16691466 0.04902792
-0.15943864 -0.12471762 0.26860073 0.24875423 -0.16195711 -0.18671402 0.114372015 0.14232674
-0.08918229 -0.09631993 0.14157492 -0.2651391 -0.29054832 -0.21099037 0.07627058 0.09062323
-0.10176745 0.2088264 -0.16750261 -0.2621161 -0.1279056 0.27375695 0.16673803 0.23051098
0.12376323 0.24242452 -0.0018213391 0.06509805 0.20287433 0.112968355 0.071205884 0.27441064
0.17761338 0.2729849 0.08099225 0.005646378
