model_dicts(.onnx)/25-25-10-dict.onnx (onnx, 89450 bytes, 6 tensors)

model.layers.0.bias f4 [25]
0	0xbd0eccd2	-0.0348633
1	0xbcefedba	-0.029288162
2	0x3c8ca89e	0.017170247
3	0xbc378b2e	-0.011202617
4	0x3c74bc54	0.014937479
5	0x3c7da7e8	0.0154819265
6	0x3cd9ffac	0.026611172
7	0xbcca1ffa	-0.02467345
8	0x3b8e8250	0.0043490306
9	0x3cefda16	0.029278796
10	0x3c7e65a0	0.015527159
11	0xbb71ced0	-0.0036896951
12	0x3c0ba558	0.008523308
13	0x3c3ace10	0.011401668
14	0xbd03d76f	-0.032187875
15	0xbc9f90cc	-0.019478224
16	0x3d012fb5	0.031539638
17	0xbc290b40	-0.010317624
18	0x3d0a172b	0.0337135
19	0xbc5524b2	-0.013009237
20	0x3d04a1f3	0.03238101
21	0xbc8ff09a	-0.017570782
22	0x3d05d593	0.032674383
23	0xbc94da7c	-0.018170588
24	0x3a964c20	0.0011466779

model.layers.0.weight f4 [25, 784]
0	0x3cb619ba	0.022229064
1	0x3a02f680	0.0004995838
2	0x3c92d916	0.01792578
3	0xbccf7e35	-0.025328735
4	0xbc2e5e7c	-0.010642644
5	0xbcab2320	-0.020890772
6	0xbbbdc378	-0.005791124
7	0xbd003475	-0.031300027
8	0xb9169000	-0.00014358759
9	0xbc3f1380	-0.011662364
10	0x3cadc05c	0.021209888
11	0xbc80f7b3	-0.015743112
12	0x3ce1bd92	0.027556214
13	0x3c0ec298	0.008713387
14	0xbd027202	-0.031847008
15	0x3c9c05d8	0.019045755
16	0x3ca7ed96	0.020499032
17	0x3b90de70	0.004421048
18	0xbc0f5b6a	-0.008749822
19	0x3ce6e4de	0.028185304
20	0xbcca2673	-0.024676537
21	0xbbb8a99c	-0.0056354534
22	0x3d00c64b	0.031439107
23	0xbd0b168e	-0.033957057
24	0xbccccc8a	-0.024999876
25	0x3cac8f80	0.02106452
26	0x39e3a900	0.0004342273
27	0x3cbabf98	0.022796437
28	0xbcf804e3	-0.030275768
29	0x3cf1e03a	0.029525865
30	0x3d0924a5	0.033482213
31	0x3c954ed8	0.018226072
32	0xbc7b7fb8	-0.015350275
33	0xbc9dc255	-0.019257704
34	0xbc96e7ae	-0.01842102
35	0xbbaacd9c	-0.005212499
36	0xbb7ec0e0	-0.0038872287
37	0x3bd89ab8	0.006610241
38	0x3caf32ac	0.021386467
39	0x3cae5dfc	0.02128505
40	0xbd0bd597	-0.034139242
41	0xbced5d75	-0.028975228
42	0x3cda850e	0.026674774
43	0x3ccfd68a	0.025370855
44	0x3c89bda2	0.016814057
45	0xbb431db0	-0.0029772334
46	0xbcdc2f45	-0.026878009
47	0x3ce3c38a	0.027803201
48	0xbcd5778c	-0.026057981
49	0x3cb94bee	0.022619214
50	0x3a133d40	0.0005616732
51	0xbca57415	-0.020196954
52	0xbc1f1b0e	-0.00971104
53	0xbcfcbc1a	-0.030851413
54	0xbcdd434a	-0.027009625
55	0x3a9fad00	0.0012182295
56	0x3ce1485e	0.027500328
57	0x3ccf2e76	0.025290709
58	0x3c8d23f2	0.017229054
59	0xbb2652b0	-0.0025378875
60	0x3cb3597a	0.021893252
61	0x3d08ea37	0.03342649
62	0xbcfc537c	-0.030801527
63	0x3b664310	0.0035135187
64	0xbd095c02	-0.03353501
65	0xbc75634e	-0.014977289
66	0x3d06964b	0.032858174
67	0x3cc1c9de	0.023655828
68	0x3c9adb7c	0.018903486
69	0xbadef3e0	-0.0017009936
70	0xbb05cb50	-0.0020415373
71	0x3c8b8da2	0.01703531
72	0x3cc7e81c	0.02440267
73	0x3cde5cf6	0.027143937
74	0x3b96e648	0.0046050884
75	0x3bcb54c8	0.006205175
76	0xbcf883a8	-0.030336216
77	0x3cab7280	0.020928621
78	0xbc85be33	-0.016326046
79	0x3ce9478a	0.028476495
80	0x3c74b338	0.014935307
81	0xbd09f75e	-0.033683173
82	0x3d042e95	0.032270987
83	0x3adc3840	0.0016801432
84	0x3d11cbf7	0.035594907
85	0x3c8cc27c	0.017182581
86	0xbca97e4a	-0.020690102
87	0xbc84e6e7	-0.016223384
88	0xbce5ff61	-0.028075876
89	0xbc07c18e	-0.008285893
90	0xbc04f624	-0.008115325
91	0xbc109ed8	-0.008826934
92	0xbd0f920f	-0.0350514
93	0x3c771c9c	0.015082505
94	0xbc58f6a6	-0.013242399
95	0xbd0d3118	-0.034470648
96	0x3c6fb060	0.014629453
97	0x3cc20532	0.023684118
98	0x3d00c81f	0.03144085
99	0x3c2655d4	0.010152299
100	0xbc57fe2a	-0.013183156
101	0xbca21223	-0.019784039
102	0xbc977d05	-0.018492231
103	0x3cc9d7ac	0.024638973
104	0xbcca269c	-0.024676614
105	0x3c6cdab4	0.01445644
106	0x3c911b88	0.017713323
107	0xbc97ec7a	-0.018545378
108	0x3cac844c	0.021059178
109	0xbce9e2f8	-0.02855061
110	0xbc815620	-0.015788138
111	0x3c2d2c34	0.010569621
112	0xbc88475a	-0.016635586
113	0xbce49b8a	-0.027906198
114	0xba20ea40	-0.00061384216
115	0xbd08df2b	-0.033415955
116	0xbc3e77fc	-0.011625286
117	0xbce31c88	-0.027723566
118	0xbb8eddd0	-0.004359938
119	0xbcc7eac3	-0.024403935
120	0x3d1141cb	0.035463136
121	0xbcb42725	-0.021991322
122	0x3b9a4628	0.0047080703
123	0xbc839a43	-0.016064769
124	0x3bf2c0a8	0.0074082203
125	0x3cd928ee	0.026508775
126	0x3c8163a2	0.015794579
127	0xbcd80f98	-0.026374623
128	0x3c3f45e0	0.011674374
129	0x3cb96740	0.022632241
130	0xbce3d97e	-0.02781367
131	0xbb776620	-0.003775008
132	0xbbaaee48	-0.0052163936
133	0x3c0e7d50	0.008696869
134	0x3cc517f8	0.02405928
135	0x3c282184	0.010261897
136	0x3c0d40f0	0.008621439
137	0x3c421284	0.011845235
138	0x3c948c20	0.018133223
139	0xbbac8830	-0.0052652583
140	0x3d0eb523	0.034840714
141	0x3c577690	0.013150826
142	0x3cc5b816	0.02413563
143	0xbcc8bc3c	-0.02450382
144	0x3c089900	0.008337259
145	0xbd0c2625	-0.034216065
146	0xbc071be0	-0.008246392
147	0xbb8595d0	-0.004076697
148	0x3b919a08	0.004443411
149	0xbbc10e08	-0.0058915652
150	0xbc8226a7	-0.015887571
151	0x3cb84e8c	0.022498392
152	0xbcabde05	-0.02097989
153	0xbba7fba4	-0.0051264334
154	0xbc35d586	-0.011098271
155	0x3cb18b28	0.0216728
156	0xbc8eba2c	-0.017422758
157	0x3bc9fc50	0.006164111
158	0xbd11cabf	-0.035593744
159	0xbd030b4f	-0.031993207
160	0x3c8ff07c	0.017570727
161	0x3d018bc1	0.03162742
162	0xbd00c2b8	-0.0314357
163	0xbcf7b695	-0.03023843
164	0x3c36e8f0	0.011163935
165	0x3b7fd850	0.0039038844
166	0xbc6c5e7c	-0.014426824
167	0xbc43dfb2	-0.011955189
168	0x3b3e83f0	0.002907034
169	0xbc614c78	-0.013751142
170	0x3cdecc12	0.027196918
171	0xbcad52a0	-0.021157563
172	0xbc89252a	-0.016741354
173	0xbbe7fe9c	-0.0070799123
174	0x3cc05d62	0.023482028
175	0x3cfdeb92	0.030996118
176	0xbcf03e28	-0.029326513
177	0xbcfd1e8e	-0.030898359
178	0x3ccfe2ea	0.025376756
179	0xbc3cb8dc	-0.011518683
180	0x3d0d1203	0.034441005
181	0x3ace21a0	0.0015726574
182	0x3c8b3dc4	0.016997226
183	0x3cc665b0	0.02421841
184	0xbc9b4ce0	-0.018957555
185	0x3be5b848	0.0070104934
186	0x3cf1ae9a	0.029502202
187	0xbcd8126a	-0.026375968
188	0xbc959363	-0.018258756
189	0x3c9e27b0	0.019306034
190	0xbcf53da1	-0.029936614
191	0xbca2ed20	-0.01988846
192	0xbbd60e70	-0.006532483
193	0xbcba43a5	-0.022737334
194	0xbb105a50	-0.0022026487
195	0xbc89df50	-0.016830117
196	0x3c1ae150	0.009453133
197	0xbceb3421	-0.02871138
198	0xbd03523b	-0.032060843
199	0x3bb9d868	0.0056715496
200	0xbc65c80e	-0.014024748
201	0x3d0d4169	0.034486208
202	0xbd042706	-0.03226378
203	0x3bb29ec0	0.0054510534
204	0x3cd2b2fa	0.025720108
205	0xbc9b690a	-0.018970985
206	0xbcb61f2e	-0.022231665
207	0xbd0f6944	-0.0350125
208	0xbcd7c39c	-0.026338391
209	0xbc2ed5fc	-0.010671135
210	0xbc057812	-0.008146303
211	0x3cb5231c	0.022111468
212	0xbc57a726	-0.01316241
213	0x3c07eee0	0.008296698
214	0x3c77a5d8	0.015115224
215	0x3cb26f02	0.021781448
216	0x3cf4247e	0.029802557
217	0x3cdd2962	0.026997272
218	0x3c22d414	0.009938259
219	0xbc2a9d4e	-0.010413481
220	0xbc0c3a12	-0.008558767
221	0x3d115bd3	0.03548796
222	0x3b0fe990	0.0021959282
223	0xbcf29df5	-0.029616335
224	0xbb35cf50	-0.0027741976
225	0x3c95699e	0.018238839
226	0x3c5842f0	0.013199553
227	0xbc153c60	-0.009108633
228	0xbc2d443c	-0.01057535
229	0xbd0769f4	-0.03306003
230	0x3d0e22a3	0.034701
231	0x3ccf373c	0.025294892
232	0x3cb34f4a	0.021888394
233	0x3c190208	0.009338863
234	0xbc414fa6	-0.011798775
235	0x3c9cd9ee	0.019146886
236	0xbc45994e	-0.0120604765
237	0x3bd47030	0.0064831004
238	0xbc2748bc	-0.010210212
239	0xbc974c4e	-0.018469002
240	0x388bae00	6.6604465e-05
241	0x3b72d8a0	0.0037055388
242	0x3a7a6600	0.00095519423
243	0xbcf0809e	-0.029358204
244	0xbd0a1513	-0.033711504
245	0xbc955130	-0.01822719
246	0xbac420c0	-0.0014963374
247	0xbccddd1a	-0.025129844
248	0x3c8ebab0	0.017423004
249	0xbcfcd293	-0.030862128
250	0x3cf95932	0.03043804
251	0x3c8153da	0.015787054
252	0x3c5d27b8	0.013498239
253	0x3cd8403a	0.026397813
254	0x3d007949	0.031365667
255	0xbbf36a88	-0.007428471

model.layers.1.bias f4 [25]
0	0x3d75f0cc	0.060044095
1	0x3ddd5b8e	0.10808478
2	0xbe2a9525	-0.16658457
3	0x3d7abafc	0.06121348
4	0xbdc5d4fd	-0.09659765
5	0xbca34830	-0.019931883
6	0x3df5d992	0.12004389
7	0xbe35169a	-0.17684403
8	0x3d426b88	0.04746583
9	0xbdd89eca	-0.105771616
10	0xbd878ca4	-0.06618622
11	0xbe09472e	-0.13406059
12	0x3c824080	0.015899897
13	0x3cbe8930	0.023258775
14	0xbe381a4d	-0.17978783
15	0xbdb45bb7	-0.08806556
16	0xbdeb7fb7	-0.11498969
17	0x3c4e6d00	0.01259923
18	0xbd8c5e8c	-0.06853971
19	0xbe371153	-0.17877702
20	0xbdf40a37	-0.11916011
21	0xbe14e48e	-0.14540312
22	0x38536000	5.0395727e-05
23	0xbdf76c90	-0.120812535
24	0xbca7fbd0	-0.020505816

model.layers.1.weight f4 [25, 25]
0	0xbdf3a887	-0.118973784
1	0x3d47e514	0.04880245
2	0xbdcf20fa	-0.10113712
3	0x3e2f79cf	0.1713631
4	0x3de1fc86	0.11034493
5	0x3e1cf7b1	0.15328862
6	0x3d7d87fc	0.061897263
7	0xbda10fa3	-0.078643106
8	0xbc4a9fe0	-0.012367219
9	0xbe459ff7	-0.19299303
10	0x3e304f71	0.17217804
11	0x3e008287	0.12549792
12	0xbdb29340	-0.08719492
13	0x3cd1ab90	0.025594503
14	0x3d3a002c	0.04541032
15	0x3e3480b1	0.17627217
16	0x3df0fc26	0.117668435
17	0xbd8cbed6	-0.068723366
18	0xbe3e219d	-0.1856751
19	0xbe1ea900	-0.15494156
20	0xbc994728	-0.018710688
21	0x3c40eca0	0.011775166
22	0xbe2e1cdb	-0.17003195
23	0x3e2802d5	0.1640733
24	0xbdbc0437	-0.091804914
25	0x3b989bc0	0.0046572387
26	0x3dc456aa	0.09586842
27	0xbc7c1db0	-0.015387937
28	0xbda3fba3	-0.0800698
29	0x3bb87d60	0.0056301802
30	0x3d5c5c84	0.053799167
31	0xbd89a6ba	-0.06721254
32	0xbd06fe94	-0.03295763
33	0xbe49e1fa	-0.1971511
34	0x3dd44ff6	0.10366814
35	0x3e19ebf1	0.15031411
36	0xbdff3f50	-0.12463248
37	0xbda1d1da	-0.07901354
38	0x3d961bfe	0.07329558
39	0x3e00d241	0.12580206
40	0xbe338937	-0.17532812
41	0x3df43632	0.119243994
42	0xbdd159cd	-0.10222206
43	0x3df0fa46	0.11766486
44	0x3e4b7ddf	0.19872235
45	0x3e29aaff	0.16569136
46	0xbdbaeb9a	-0.09126969
47	0x3dc81b96	0.097708866
48	0xbc4b2a00	-0.01240015
49	0x3d99c63a	0.07508512
50	0xbdec2723	-0.11530902
51	0xba35e600	-0.0006938875
52	0x3dbe5262	0.09293057
53	0xbe1563e2	-0.14588884
54	0x3e000785	0.12502868
55	0xbe25546a	-0.16145483
56	0x3d9bdc82	0.07610418
57	0xbd413ff8	-0.047180146
58	0xbdbf894a	-0.09352358
59	0x3e40a807	0.18814097
60	0x3d3e06c0	0.046393156
61	0xbda79ff0	-0.081848025
62	0x3d913fd6	0.07092254
63	0xbddbcd93	-0.107325695
64	0xbe068cc6	-0.13139638
65	0xbe0903a0	-0.13380289
66	0xbdd36420	-0.10321832
67	0xbe495e0f	-0.19664787
68	0xbbd98e00	-0.006639242
69	0x3de1a1da	0.11017199
70	0xbe0d01f0	-0.1377027
71	0x3e20a0b9	0.15686311
72	0xbe0ffceb	-0.14061324
73	0x3e21d351	0.15803267
74	0xbd5fa20c	-0.0545979
75	0x3d2fdb98	0.04293403
76	0xbe2cbb86	-0.1686841
77	0x3b166580	0.0022948682
78	0xbda0f9d7	-0.07860153
79	0xbc46d650	-0.012136057
80	0xbda48bf0	-0.080345035
81	0xbd6b2894	-0.057411745
82	0x3de551e2	0.111972585
83	0xbdad6c6a	-0.08467944
84	0x3b5fe0c0	0.003416106
85	0xbe3a550f	-0.1819651
86	0x3da4a976	0.080401346
87	0x3b170a80	0.002304703
88	0xbdfe64bd	-0.12421558
89	0xbd3562ac	-0.044283554
90	0x3daa8fda	0.08328219
91	0x3bcba3c0	0.006214589
92	0xbdfdf450	-0.124001145
93	0x3e134965	0.14383467
94	0xbe4a5b53	-0.197614
95	0x3dbe1816	0.09281938
96	0x3e3b1625	0.18270166
97	0x3da954de	0.0826814
98	0x3dbe4d52	0.092920914
99	0xbd1028c8	-0.035195142
100	0x3e03e063	0.12878565
101	0xbd102788	-0.03519395
102	0x3e3689f1	0.17826058
103	0xbe2c89c2	-0.16849425
104	0x3dcd4d62	0.10024525
105	0xbe45a8b7	-0.19302641
106	0x3e495c8f	0.19664215
107	0xbcb08cf0	-0.02155158
108	0x3e044867	0.12918244
109	0x3d01cbb4	0.031688407
110	0x3b980740	0.004639536
111	0xbe016658	-0.12636697
112	0x3e493179	0.19647779
113	0xbe09493c	-0.13406843
114	0x3d889ace	0.06670152
115	0x3d347c28	0.044063717
116	0x3dacb632	0.084331885
117	0xbd4e0020	-0.050293088
118	0xbe122513	-0.14271955
119	0xbd8248fc	-0.06361577
120	0xbb41bac0	-0.0029560775
121	0xbde77680	-0.11301899
122	0x3e416875	0.18887503
123	0x3cf8f9a8	0.030392483
124	0xbe2f1aab	-0.17100017
125	0x3db63f32	0.08898772
126	0x3d7732e4	0.060351267
127	0xbda6750d	-0.081277944
128	0xbdbed8b0	-0.093186736
129	0x3dee6db2	0.116420165
130	0x3e00b277	0.12568079
131	0xbcbf7818	-0.023372695
132	0x3de3eb46	0.11128859
133	0xbe4a7ec3	-0.19774918
134	0x3e343095	0.17596658
135	0xbe147075	-0.14496024
136	0xbe3f69cd	-0.18692704
137	0xbdbd0ce3	-0.092309736
138	0x3c9d0768	0.01916857
139	0x3e19fc01	0.15037538
140	0xbd299cb4	-0.04140921
141	0x3dfec3b6	0.12439673
142	0x3d2ae6e8	0.041724116
143	0xbca86c28	-0.020559385
144	0x3cfc9d00	0.030836582
145	0x3e28b171	0.16473939
146	0x3dcbf622	0.099590555
147	0xbdf6f21d	-0.12057898
148	0x3d875e32	0.06609763
149	0x3d921932	0.07133712
150	0x3da4a0c2	0.080384746
151	0x3e3d2f59	0.18475093
152	0x3da68e9e	0.08132671
153	0xbe2300b2	-0.15918234
154	0x3d36f788	0.044669658
155	0x3e069b89	0.1314527
156	0x3bffde00	0.007808447
157	0x3d88fcbe	0.06688832
158	0xbd899bf6	-0.067192
159	0x3e149869	0.14511265
160	0xbd915510	-0.070963025
161	0x3e45bf73	0.19311313
162	0xbe49a16b	-0.19690482
163	0x3e2299d5	0.15878995
164	0x3c327920	0.010893136
165	0xbe230c55	-0.15922673
166	0xbd6808a8	-0.05664888
167	0x3e41fb95	0.18943627
168	0xbd9176a0	-0.07102704
169	0xbe0692f2	-0.13141993
170	0x3c19f700	0.009397268
171	0xbd9a5a03	-0.075366996
172	0xbda6ef00	-0.081510544
173	0xbda3b16a	-0.079928234
174	0x3d887b86	0.06664185
175	0x3d2aa780	0.041663647
176	0x3d8b598e	0.068041906
177	0xbe36c85a	-0.17849866
178	0x3e434c75	0.19072135
179	0xbdba8fd0	-0.09109461
180	0xbdd9753d	-0.106180646
181	0x3e237911	0.15964152
182	0x3e17fcb9	0.148425
183	0xbdddf8ed	-0.108384944
184	0x3cb82dd0	0.022482783
185	0x3d8128e6	0.06306629
186	0x3df38c9a	0.11892052
187	0xba65a500	-0.00087602437
188	0xbdad2ab0	-0.084554076
189	0x3c93c7a8	0.01803954
190	0xbe18a938	-0.14908302
191	0xbd531cd8	-0.05154118
192	0x3e2078b5	0.15671046
193	0x3e2e0be3	0.16996722
194	0x3da8e4da	0.08246775
195	0x3c6159a0	0.013754278
196	0xbe2c105d	-0.16803117
197	0xbbe1c700	-0.0068901777
198	0xbc93d218	-0.018044516
199	0x3e365f29	0.17809738
200	0xbe2a40c8	-0.16626275
201	0x3d8a3356	0.06748073
202	0xbda0c8ad	-0.07850776
203	0x3ca04250	0.01956287
204	0xbe186a93	-0.14884405
205	0x3e371191	0.17877795
206	0x3ddb09e6	0.10695247
207	0x3c8eac98	0.017416283
208	0xbd96db3c	-0.073660344
209	0xbe3e04f8	-0.18556583
210	0xbe24d9c2	-0.16098693
211	0xbde51ab3	-0.11186733
212	0xbe066058	-0.1312269
213	0xbe3032e0	-0.17206907
214	0xbd94ebec	-0.07271561
215	0x3e3b1795	0.18270715
216	0xbe35dc62	-0.1775985
217	0xbe032fed	-0.12811251
218	0xbddee327	-0.108831696
219	0x3e4995c9	0.19686045
220	0xbd80d8c4	-0.06291345
221	0x3dff4326	0.124639794
222	0xbda5bc00	-0.08092499
223	0xbe26574d	-0.1624424
224	0x3d0b55a0	0.034017205
225	0x3e047469	0.12935032
226	0x3d101708	0.035178214
227	0xbd80a884	-0.06282142
228	0x3dd9fd62	0.10644032
229	0xbdaaa177	-0.08331578
230	0xbe175ab8	-0.147807
231	0x3e0aebf1	0.13566567
232	0x3dc92c82	0.09822942
233	0xbd3ac8b8	-0.045601577
234	0x3dd893d2	0.105750695
235	0xbe0029dc	-0.12515968
236	0x3de3e81a	0.11128254
237	0xbe103f12	-0.1408656
238	0x3cb52228	0.022111014
239	0x3dec00d6	0.11523597
240	0x3a9c8580	0.0011941642
241	0xbe0d90db	-0.13824789
242	0xbd67c648	-0.05658558
243	0xbdcc5b9a	-0.09978409
244	0xbd71e4b4	-0.059056
245	0x3e0a939d	0.13532872
246	0xbdb464e7	-0.08808308
247	0x3cb2e8c0	0.0218395
248	0xbe0a5002	-0.13507083
249	0xbd0a1574	-0.033711866
250	0xbe02577e	-0.12728688
251	0xbdd5e330	-0.10443723
252	0x3cd37780	0.025813818
253	0x3b5630c0	0.0032682866
254	0x3db5ea4a	0.08882578
255	0xbde7b250	-0.11313307

model.layers.2.bias f4 [10]
0	0xbdf565a7	-0.11982279
1	0xbdebded7	-0.11517113
2	0xbd5d5018	-0.05403146
3	0x3e1102cd	0.14161225
4	0x3da27902	0.07933237
5	0xbe2c2835	-0.16812213
6	0x3d6cad2c	0.057782337
7	0x3db1bf42	0.08679058
8	0x3d4cdbb4	0.050014213
9	0xbe2d54ba	-0.16926852

model.layers.2.weight f4 [10, 25]
0	0x3e0718d9	0.13193072
1	0xbd86d664	-0.065838605
2	0x3d7cdfe4	0.061736956
3	0x3d9ea506	0.077463195
4	0x3e42ded9	0.19030322
5	0x3e2e0a19	0.1699604
6	0xbe1b20e3	-0.15149264
7	0x3cf9c870	0.030491084
8	0xbe22f18e	-0.15912458
9	0xbe1a6c2b	-0.15080325
10	0x3dc4d9d6	0.096118614
11	0x3e1c200f	0.15246604
12	0xbe2b7535	-0.1674393
13	0x3e177623	0.1479116
14	0xbe2e70f3	-0.17035274
15	0xbd81dfa6	-0.06341486
16	0xbe3e9cd2	-0.1861451
17	0xbe231222	-0.15924886
18	0xbc9057b0	-0.017619938
19	0xbe1231dd	-0.14276834
20	0xbe045368	-0.12922442
21	0xbdca669a	-0.09882851
22	0x3e10ed67	0.14153062
23	0x3ddf4efe	0.109037384
24	0xbe0469b4	-0.12930948
25	0x3c78a5b0	0.015176222
26	0xbd81e53c	-0.06342551
27	0x3b2aa740	0.002603963
28	0xbde6a82d	-0.11262546
29	0xbbdca500	-0.0067335367
30	0x3dc0db2a	0.09416802
31	0xbe2fc0cd	-0.17163391
32	0x3d8d0d4a	0.068873
33	0xbe0fe1d3	-0.14050989
34	0xbc820398	-0.015870854
35	0xbce6a480	-0.028154612
36	0xbcf00ed0	-0.029303938
37	0xbe34a2f7	-0.17640291
38	0x3d679ebc	0.056547865
39	0x3ba24160	0.004951641
40	0xbdbf1be0	-0.093314886
41	0x3db8c5a6	0.090220734
42	0x3db5e43a	0.088814214
43	0x3e1064a9	0.14100899
44	0x3cfd64a8	0.030931786
45	0xbde162da	-0.110051826
46	0x3d1d0714	0.03833683
47	0x3c2f39a0	0.010694891
48	0x3d62fd94	0.055417612
49	0xbe1e2408	-0.15443432
50	0x3db86816	0.09004228
51	0x3e2a3fa9	0.16625847
52	0xbe149f20	-0.14513826
53	0x3daf975a	0.0857379
54	0xbd99c997	-0.07509153
55	0xbe3dc8f8	-0.18533695
56	0x3d8c36ae	0.06846367
57	0x3b38da80	0.0028206408
58	0x3e087df5	0.13329299
59	0x3e0dca71	0.13846757
60	0xbe30b54a	-0.17256656
61	0x3ccb3818	0.024807021
62	0x3e110b41	0.1416445
63	0x3c9ec0e8	0.019379094
64	0xbd07e520	-0.033177495
65	0xbdc0c4b3	-0.094125174
66	0xbe377015	-0.1791385
67	0xbe1215f5	-0.14266188
68	0xbd596634	-0.053075984
69	0xbe314b2f	-0.17313837
70	0x3e3c9bc5	0.18418796
71	0x3e3855c5	0.18001468
72	0x3e149665	0.14510496
73	0x3e1512fb	0.14558022
74	0xbdcca283	-0.09991934
75	0xbe028d6a	-0.12749258
76	0x3db2335a	0.08701201
77	0xbe1f1208	-0.15534222
78	0xbe36db1f	-0.17857026
79	0x3dfe0902	0.12404062
80	0x3dc7feaa	0.0976537
81	0xbc164f00	-0.0091741085
82	0x3e1bef51	0.1522801
83	0x3dc7cabe	0.09755467
84	0x3e04a427	0.12953244
85	0xbdc8235a	-0.09772368
86	0xbdd26ead	-0.10275016
87	0x3d462794	0.04837759
88	0xbe33ebea	-0.17570463
89	0xbd2dbcb8	-0.042416304
90	0x3d1af420	0.037830472
91	0x3e0e5a75	0.13901694
92	0x3e461819	0.1934513
93	0xbe49e8d0	-0.19717717
94	0xbdc2785a	-0.094956115
95	0xbd77aca0	-0.060467362
96	0xbdfd14fd	-0.12357519
97	0xbd39b760	-0.045340896
98	0xbd231094	-0.039810732
99	0x3e03ff05	0.12890251
100	0xbe068f1a	-0.13140526
101	0xbcb8feb0	-0.022582382
102	0xbd95537c	-0.07291314
103	0xbddfaa47	-0.1092115
104	0x3d5756d4	0.05257304
105	0x3e37a339	0.17933358
106	0xbe49677d	-0.19668384
107	0xbe1ea2d6	-0.15491804
108	0xbe26e0d8	-0.16296709
109	0xbddad6a3	-0.1068547
110	0x3dbafc7e	0.0913019
111	0xbe0e3925	-0.13888986
112	0x39c5fc00	0.00037762523
113	0xbd1351ec	-0.0359668
114	0xbe34b897	-0.1764854
115	0x3b8dbb40	0.0043253005
116	0xbde67ba7	-0.112540536
117	0xbc6c4480	-0.014420629
118	0x3de9cb56	0.114157364
119	0xbd9c176a	-0.076216534
120	0x3d9fa1e2	0.077945486
121	0x3d0d39c8	0.034478933
122	0x3df70d12	0.1206304
123	0xbd08d180	-0.03340292
124	0x3db5efbe	0.08883618
125	0xbd9e9d2a	-0.077448204
126	0x3c627230	0.01382117
127	0xb94b7800	-0.00019404292
128	0x3e27b98d	0.16379376
129	0x3e2f5073	0.17120533
130	0x3c95da58	0.018292591
131	0xbdd33bc0	-0.10314131
132	0x3e1db3af	0.15400575
133	0xbd86349a	-0.06553002
134	0xbe21b483	-0.15791516
135	0xbd8c31c6	-0.06845431
136	0x3dcdb5d2	0.10044445
137	0x3dead432	0.11466254
138	0x3e0c2c57	0.1368879
139	0x3e37ad5f	0.1793723
140	0x3d5de20c	0.054170653
141	0x3df74bb2	0.120749846
142	0x3d8a9e0a	0.06768425
143	0xbd964ed6	-0.073392555
144	0x3e407c79	0.18797483
145	0x3db1f6b2	0.086896315
146	0xbd108934	-0.035287097
147	0xbe3a1745	-0.18172939
148	0x3e392d21	0.18083622
149	0xbe3056f0	-0.17220664
150	0xbe1b5c92	-0.15172032
151	0x3e344f77	0.17608438
152	0xbdd10b4a	-0.10207231
153	0x3e091209	0.13385786
154	0x3de64362	0.11243321
155	0x3dc9efa2	0.098601595
156	0x3dffbd92	0.124873295
157	0x3d416f6c	0.0472254
158	0x3c5e0cb0	0.01355283
159	0x3e3a2065	0.1817642
160	0xbd48f974	-0.049066022
161	0xbba29600	-0.004961729
162	0xbdc461d0	-0.09588969
163	0x3e16cbb5	0.14726146
164	0x3df2b582	0.11851026
165	0x3e107e0b	0.14110582
166	0xbdddb950	-0.10826361
167	0xbc0367d0	-0.008020356
168	0x3db29c52	0.08721222
169	0xbe43b21f	-0.19110917
170	0x3d9a369a	0.07529946
171	0xbe1cc280	-0.15308571
172	0x3d1f68cc	0.0389183
173	0xbdd04c10	-0.10170758
174	0xbd54b248	-0.051927835
175	0x3e1503d1	0.14552237
176	0x3d1b5218	0.037920088
177	0x3dc6a072	0.09698571
178	0xbe1faf3a	-0.15594187
179	0xbe4b9c10	-0.19883752
180	0xbd919de0	-0.071101904
181	0x3df0e422	0.11762263
182	0xbe39c67f	-0.18142127
183	0x3ccd9dd0	0.025099665
184	0x3cfb5218	0.030678794
185	0xbe4a044f	-0.19728206
186	0x3e059c83	0.13047986
187	0x3e4c9465	0.19978483
188	0x3e3a2b13	0.18180494
189	0xbc659c80	-0.014014363
190	0xbe3c5088	-0.18390095
191	0xbd97078c	-0.07374486
192	0x3e3e58c5	0.1858855
193	0x3df218c2	0.118211284
194	0xbae5b300	-0.001752466
195	0xbc9195d8	-0.017771646
196	0x3c9276d0	0.01787892
197	0x3db5c7f2	0.08876027
198	0xbdc7cb03	-0.09755518
199	0x3d06bd74	0.03289552
200	0xbe0a8994	-0.13529044
201	0xbdcf2f77	-0.10116475
202	0x3db16c1a	0.08663197
203	0x3e0aeb91	0.13566424
204	0xbe2956c0	-0.16536999
205	0xbe41f578	-0.18941295
206	0xbe3bfedb	-0.18358938
207	0xbe0876f0	-0.13326621
208	0xbd2581c8	-0.040406972
209	0xbd54f8c8	-0.05199507
210	0xbdfa1e4d	-0.12212811
211	0xbdc846e0	-0.09779143
212	0xbe3efdef	-0.18651555
213	0x3d95854e	0.073008165
214	0xbdb6e720	-0.08930802
215	0xbd90ab6a	-0.07063945
216	0x3c068d20	0.008212358
217	0xbde312b3	-0.11087551
218	0x3d287b60	0.041133285
219	0x3d30f074	0.043198064
220	0x3dc69d9e	0.09698032
221	0x3dbe7e3a	0.093014196
222	0xbe395e42	-0.18102363
223	0xbc783760	-0.015149921
224	0x3e0c6081	0.13708688
225	0xbe1ba632	-0.15200117
226	0xbd7f868c	-0.062384173
227	0xbe3d8fa3	-0.18511824
228	0x3da503da	0.08057375
229	0x3dd20862	0.10255505
230	0xbe0a76f5	-0.13521941
231	0xbd1a0e2c	-0.03761117
232	0xbd8911d6	-0.06692855
233	0xbd90552c	-0.07047495
234	0xbe20f7be	-0.15719506
235	0x3e3cc461	0.18434288
236	0xbc146c20	-0.009058982
237	0xbe4059a7	-0.187842
238	0x3e2a3e21	0.16625263
239	0xbd4e31e0	-0.050340533
240	0xbe0a6e94	-0.13518745
241	0x3e3ecd1b	0.18632929
242	0xbe4c76a5	-0.19967134
243	0x3db719fa	0.089405015
244	0x3e1d49f9	0.1536025
245	0x3df19556	0.11796062
246	0xbdf8676d	-0.12129102
247	0xbe400faf	-0.18755983
248	0xbdfef097	-0.124482326
249	0xbddd3e97	-0.10802954
