model_dicts(.onnx)/35-10-dict.onnx (onnx, 116201 bytes, 4 tensors)

model.layers.0.bias f4 [35]
00000000: b128 f2bc 8058 69ba c8d3 afbb c384 dabc
00000010: 08df bcbc d95e 0b3d 4aea f73c 787c cfbb
00000020: 60b2 e83a 6e82 12bc 548a 3b3c 6041 833a
00000030: e65c e83c a0da 50bc 8001 8bb9 ea4e 01bd
00000040: 80c0 b4b9 b8a0 653c b6a9 ae3c c355 0d3d
00000050: 314c 043d 7033 0d3b 7c46 763c a04b deba
00000060: 48b6 a4bc 8c94 c03c 0fdd 083d a300 0bbd
00000070: f65c f03c b0f0 17bb cec0 edbc b8db 4b3c
00000080: 00f9 babc 40f6 ecba c4df 03bc
-0.029560419 -0.0008901432 -0.0053658225 -0.026674634 -0.023055568 0.034026 0.030263085 -0.0063319765
0.0017753355 -0.00894223 0.011446554 0.001001399 0.02836461 -0.012747437 -0.00026513264 -0.0315694
-0.000344757 0.014015369 0.021321159 0.034505617 0.032299224 0.0021545552 0.015031453 -0.0016959794
-0.02010645 0.023508333 0.033413943 -0.033936154 0.029341202 -0.0023184232 -0.0290226 0.012442522
-0.02282381 -0.0018078759 -0.008048955

model.layers.0.weight f4 [35, 784]
00000000: d0b0 c83b 027d db3c 1ecd e83c 2049 9f3c
00000010: 8232 e13c 18ab b83c 88f1 6c3c b22e d83c
00000020: 70c9 b4bb b09e d93c de91 c4bc 0a4b eb3c
00000030: 5092 183b 74e1 033c 800d b4b9 5252 c83c
00000040: 206b e83b ee40 ddbc b8f3 423c c62f bc3c
00000050: 922d 49bc 2afc 8b3c 4ed1 1fbc cea1 c5bc
00000060: 21e3 f4bc b21a 53bc f539 aebc 9271 8c3c
00000070: b7f3 83bc 0081 db39 00f0 9eb8 e4d2 ffbb
00000080: 9a14 8dbc 000a 663c 2a60 963c 0ea1 803c
00000090: 38f0 3a3c ced2 dc3c 9265 8f3c 8a88 40bc
000000a0: ce4e babc 80cd dbb9 3c38 1ebc fc7e 11bd
000000b0: 249d 783c ec76 d8bc 3de5 023d 3019 e2bc
000000c0: a18c e8bc 8e99 cc3c 5400 a6bb dcc3 39bc
000000d0: d0f2 0c3b 2a21 0abc 9c24 38bc 584a ffbc
000000e0: 862a 73bc 54be 2d3c 9213 e53c 908c 1f3b
000000f0: b33e 05bd ae29 14bc 40fc e0ba 6017 36bb
00000100: b2fd 48bc 5c57 3d3c cafd 8f3c 4264 fe3c
00000110: ee88 3cbc 9290 f13c 55b8 c3bc 10a7 8e3b
00000120: 214d 083d b880 603c e7ed 0d3d fc7f 62bc
00000130: dec0 edbc 40f8 e2ba 30cf 86bc 418c 053d
00000140: 666b 41bc 72cd b83c f853 bc3c 3c9e 843c
00000150: 81f3 103d 488d cb3c f901 103d 94e0 0d3c
00000160: 5619 0abd 4884 b3bc 4ecf 97bc 1a92 f03c
00000170: d8e8 683c 9e64 afbc 4090 343c f05e 82bc
00000180: 90cf c13b a5cb 103d a1e4 f2bc da8e a3bc
00000190: 16e3 f93c 936c 0d3d c010 43bc 14ec 753c
000001a0: 3208 4ebc 9855 08bd 6aeb 0dbc 2236 0abd
000001b0: 934b e5bc 3e87 893c 9a41 83bc 80b1 1ebb
000001c0: 9088 d9bc 5052 583c 7324 06bd 72f4 a13c
000001d0: f871 ca3c f0e9 a8bc a7f5 90bc 60a0 4f3c
000001e0: c30d 0f3d f040 27bb a043 c03c 40e7 aaba
000001f0: 8078 f1bb 885b 633c 57a8 093d 3010 7d3b
00000200: a0ec 14bc bd29 023d 589d 0bbd d051 b5bc
00000210: e694 df3c 2a81 b43c 7847 b43b 48f1 b33b
00000220: 7548 c8bc c282 f03c fe64 d4bc 52e1 08bc
00000230: 13ea 083d 0030 08bd 485e a63b 4c15 d03c
00000240: c07c 6abc de72 de3c a8e6 b13b 0879 80bb
00000250: 6b55 0f3d a02c 24bc 4af0 77bc 703d c4bc
00000260: be56 07bd b879 1cbc 074c 0b3d c5d9 003d
00000270: 5831 903c 25e5 d7bc 00d4 92b8 c405 0bbc
00000280: 0886 a1bb fc4a 733c 38ba 353c ece4 c83c
00000290: ee30 96bc f73b 80bc b219 32bc 38e5 d6bc
000002a0: 987f 15bc fcec 77bc 11f6 083d d0fc 373c
000002b0: b03f a83b 40aa e93b 7092 44bb 3045 1a3c
000002c0: 068f e63c 3e56 abbc 7004 09bb 487d 95bb
000002d0: c09c 06bc 904d 42bb 9ed2 b53c 9afa c93c
000002e0: d3b6 90bc 033a a5bc 20f0 80ba 001a 1ab9
000002f0: ca0e ae3c e4a3 c2bb b85e 7b3c 9c8b f9bc
00000300: 9426 583c 7860 bebb 8ed2 e63c f88c edbb
00000310: 60cc ffba 54e3 01bd 553e d0bc 2e4a e63c
00000320: 9e9d 11bd 26a4 e13c 4a00 61bc 2858 d23c
00000330: 57a0 8fbc 3259 02bc da9f 8b3c 0a06 0fbc
00000340: e04b a43a d33b c9bc 7c1c 8dbc 1cc5 62bc
00000350: 8cfa b6bc 08b1 b43c eece 73bc ecbd 9b3c
00000360: 388f d53b 9488 1e3c ea54 9d3c 0e1c 93bc
00000370: a0cd a03a b094 5c3b 5aaf 983c 4001 ab3b
00000380: da26 da3c 607d ae3a 25c8 063d c80e 133c
00000390: 7a21 ebbc 24db 7f3c 9019 963c 55d6 d3bc
000003a0: 0ab2 ac3c 5262 15bc e04c 45bc 10b8 3f3b
000003b0: d072 e4bc 2a4e b63c 3e9f cf3c a726 0fbd
000003c0: 2ef7 eb3c 7cf2 59bc 7824 8e3b dc08 763c
000003d0: aa05 ff3c 533a c8bc 8c48 fbbc 8867 bfbc
000003e0: 87b9 05bd 6340 023d a0f0 55bb 4807 503c
000003f0: e00b dcbc bc9a f6bc dcbe 1fbc 6c27 92bc
0.0061245933 0.026793007 0.02841812 0.019444048 0.027489904 0.022542521 0.014461882 0.026389454
-0.0055171773 0.026564926 -0.023995336 0.028722305 0.0023280568 0.008049358 -0.00034342334 0.024453316
0.0070928484 -0.0270085 0.011898927 0.022971999 -0.012278931 0.017088015 -0.009754492 -0.024125006
-0.02989346 -0.012884783 -0.02126787 0.017143998 -0.016107423 0.00041867048 -7.5787306e-05 -0.0078071225
-0.017221738 0.01404047 0.018356401 0.015701797 0.011409812 0.026955988 0.017504487 -0.011751303
-0.022742655 -0.00041924044 -0.009656962 -0.035521492 0.015174184 -0.026423894 0.0319569 -0.027599901
-0.02838737 0.024975564 -0.005065957 -0.0113382 0.0021507032 -0.0084307585 -0.011239197 -0.03116338
-0.014841681 0.01060446 0.027963433 0.0024345256 -0.032530498 -0.00904314 -0.001716502 -0.0027784929
-0.012267517 0.011556473 0.01757707 0.031053666 -0.011507256 0.029487882 -0.023891607 0.0043534115
0.03327668 0.013702564 0.03465071 -0.013824459 -0.02902263 -0.0017316416 -0.016456217 0.03260446
-0.011805391 0.022558901 0.022989258 0.016188733 0.035388473 0.024847642 0.03515813 0.008659501
-0.03371557 -0.021913663 -0.018531468 0.029366542 0.0142156705 -0.021410283 0.01102072 -0.01591441
0.005914636 0.03535046 -0.029650034 -0.019965578 0.03050379 0.034527373 -0.011905849 0.015009899
-0.012575196 -0.033284754 -0.008662084 -0.03374303 -0.027990138 0.016788121 -0.016022492 -0.0024214685
-0.026554376 0.013203219 -0.032749604 0.01976988 0.024712548 -0.020619363 -0.017695261 0.012672514
0.034925234 -0.0025520884 0.023469746 -0.0013038889 -0.007369101 0.013876803 0.033607807 0.0038614385
-0.009089619 0.031778086 -0.0340856 -0.022133738 0.02729268 0.022034246 0.005501684 0.0054914095
-0.024448613 0.029359225 -0.025927063 -0.008354502 0.033426356 -0.0332489 0.005077157 0.02540078
-0.014311969 0.027154382 0.0054291077 -0.003920678 0.03499357 -0.010020405 -0.015132973 -0.023955077
-0.03304171 -0.009550504 0.034008052 0.03145768 0.017601654 -0.026354382 -7.0013106e-05 -0.008485261
-0.004929308 0.014849421 0.011091761 0.024523221 -0.018333878 -0.015653593 -0.010870384 -0.026232347
-0.009124659 -0.015132185 0.033437792 0.011229709 0.0051345453 0.007130891 -0.002999451 0.00941591
0.02814437 -0.020915147 -0.0020907186 -0.004562054 -0.008216083 -0.0029648282 0.022195157 0.024655629
-0.017665302 -0.020169264 -0.0009837188 -0.0001469627 0.021247286 -0.0059399474 0.015342407 -0.030462079
0.0131927915 -0.00580984 0.028176572 -0.007249471 -0.0019515865 -0.031710938 -0.025420347 0.028111544
-0.035550706 0.027544092 -0.013732979 0.025676802 -0.01753251 -0.007955836 0.017043997 -0.008729467
0.001253482 -0.02456466 -0.017225496 -0.01384094 -0.022336267 0.022057071 -0.014880879 0.01901146
0.006517317 0.009676117 0.01920553 -0.017957713 0.0012268312 0.003365796 0.018638302 0.005218655
0.026629854 0.0013312511 0.032905716 0.008975692 -0.028702486 0.015616212 0.018322736 -0.025859037
0.02108099 -0.00911768 -0.012042254 0.0029253997 -0.027886778 0.022254068 0.025344487 -0.03494897
0.028804388 -0.013302442 0.0043378435 0.015016761 0.03113063 -0.024441874 -0.030674241 -0.023364797
-0.032647636 0.031799685 -0.0032644644 0.0126970485 -0.026861131 -0.03010308 -0.009750094 -0.017841063

model.layers.1.bias f4 [10]
00000000: c435 49bd 4d2e 06be e106 aebd e4fa b7bd
00000010: 20da 6c3d a821 ac3c 9548 8ebd f8a7 223e
00000020: afee e3bd 7446 2b3e
-0.04912354 -0.131036 -0.08497406 -0.089834005 0.057825208 0.021012142 -0.06947438 0.15884387
-0.1112951 0.16726094

model.layers.1.weight f4 [10, 35]
00000000: aa16 cfbd a6e7 d7bd b606 1fbe 01ab d9bd
00000010: 5081 76bc d893 533d c8e4 403d 332a 01be
00000020: 5c89 1d3e 00ff a0bc 5782 95bd 2cc4 b73d
00000030: 08a9 463d 486c 86bd e8c0 b23d 173e 22be
00000040: 0032 88bb d074 48bd 100b 0ebe dd6e 16be
00000050: 0f27 d8bd 787f 293e ccd4 583d e223 063e
00000060: 84d7 113e 60b3 eabc 92cd 28be 1055 17bd
00000070: 1c62 0fbe 710d 07be 64f4 dabd 8c07 0ebe
00000080: 6a31 dfbd 65c3 acbd 106d 55bd 92aa 853d
00000090: 2a7d 40bd e8d0 db3c 5e77 203e f8ce 3b3d
000000a0: ee6f 853d 4213 1b3e ece9 1ebe b4c3 723d
000000b0: 70e3 5c3c 38bb 933c 300b c8bc 208f c53c
000000c0: a0ad d43c f454 1f3e c42f e83d 5015 ea3c
000000d0: d0b4 96bc 6778 2bbe 0473 ff3d a6a7 9a3d
000000e0: e081 eebc d58a 05be 1aae 2a3e 6006 7dbc
000000f0: 34ff 07be 08a3 6abd 80d1 f7bb 4845 483d
00000100: d907 d5bd 3e91 10be 534b e0bd 0c83 b43d
00000110: e099 bd3c a07d 7d3c 1059 503c 5487 d93d
00000120: 90c4 293c 60b6 afbc f30b a7bd 00f1 163e
00000130: ea6e 183e 75ec 27be 3c6b 27bd 88f6 8dbd
00000140: 642c 2bbe b68d 0cbe c012 f8bd a7e8 dfbd
00000150: fa3e 1ebe 3642 65bd 902e 04be a6eb 37bd
00000160: 5a43 8b3d 2257 283e 584a d43d a0ff afbd
00000170: 27af 1dbe 309d 05bc c306 efbd d82e 29bd
00000180: 3e34 06be a6ec 4bbd 002d b53d 02e4 51bd
00000190: 84f4 d7bd 4c61 f8bd 6e75 923d f31b 14be
000001a0: 8001 da3d f08a ab3c 4863 103e 56a2 a9bd
000001b0: 4d99 25be fa78 253e c0d3 673c 7cd7 023d
000001c0: 9a18 113e 9caa 02be 9c26 22be c6c2 7fbd
000001d0: 3e60 1b3e e81e cb3d a625 e8bd 8846 2b3d
000001e0: ecac 11bd 4adc cdbd 5826 01bd 3028 983c
000001f0: ccf5 333d d5df 93bd e899 823c 0caf 10bd
00000200: 6e71 01be 440b 62bd ec2c 64bd ef8b f0bd
00000210: f0f3 423c 984b a9bd 1c89 e53d 743b 1b3d
00000220: 34fa 07be 8166 04be 48d7 623d 281b 8c3c
00000230: e4c4 883d 60dd 68bd 294f abbd 1ce4 18bd
00000240: 786a d43d f34e 28be bace 883d 2c00 d23d
00000250: 8072 82bc 7abd 65bd 03fb 81bd 56a5 213e
00000260: a126 a9bd 44e9 1e3e bc00 b03d 4052 0fbb
00000270: b873 b73d 9c1b dc3d f060 ee3c d75f 23be
00000280: f0fc 523c deda 1d3e 644f 7c3d 4a39 42bd
00000290: 5000 da3d 948d 0a3d b800 a83d 9868 ddbd
000002a0: 847c d93d 8b92 c0bd d6ff 083e 5e9e 05be
000002b0: b6cd 1e3e c006 593d 0838 cf3d 783d 3dbd
000002c0: 4c1e 1e3e b4dd 0abe 378f cfbd 10e4 61bc
000002d0: 4065 183d 3c24 103d 3175 2bbe 4cb8 533d
000002e0: e894 e93d 2a18 67bd c8f3 dabd b498 253d
000002f0: 40be aa3c 4f1a 93bd 3417 1cbd 6cf6 ed3d
00000300: b22e 4dbd a8f5 3a3d ae3e 2c3e 5812 423d
00000310: 246f da3d ac33 94bd 807d e9ba bc80 3f3d
00000320: 488f bd3d d446 2bbe ea05 033e e619 253e
00000330: 0860 623d 1414 28be 35db 16be 8672 1dbe
00000340: a956 0ebe 24c2 d03d 577a 03be d862 e53d
00000350: fe60 d4bd ceab 01be 10eb c03d c088 b63b
00000360: 6057 63bc 7a2b 17be 90c7 793d 18ba d53d
00000370: 96e5 20be f656 1a3e 700e 033e 7dd9 babd
00000380: 187a 6ebd 9ecc 0bbe 1aab 033e dae2 12be
00000390: 2aa3 e9bd e396 c0bd 81cf a8bd 9670 11be
000003a0: 74ec ef3d 3c81 bc3d 503c 5d3d a811 a0bc
000003b0: a845 0c3d a00f c33d 78dc e4bd a599 1dbe
000003c0: b0b1 873d 00dc ffbd 204f 81bc cbc4 16be
000003d0: 1850 05bd 502d 68bc 9023 00be e4a8 c93d
000003e0: f00c e03d 507c fe3d 70eb 263e d87b c7bc
000003f0: 2c75 d53d 4db6 15be b590 82bd 3293 8b3d
-0.10111745 -0.1054223 -0.15529904 -0.106283195 -0.015045479 0.051654667 0.047093183 -0.12613754
0.1538443 -0.019652843 -0.07300251 0.08972964 0.048501045 -0.06563622 0.087282 -0.15843998
-0.004156351 -0.048939526 -0.13871408 -0.14690728 -0.10554325 0.16552532 0.052937314 0.13099626
0.14242369 -0.028649986 -0.16484669 -0.036946356 -0.1400227 -0.13188721 -0.10691145 -0.13870066
-0.10898097 -0.08435706 -0.052105963 0.06526674 -0.046994366 0.026833013 0.15670535 0.045851678
0.065154895 0.15144065 -0.15518922 0.05926867 0.01348196 0.018033609 -0.024419397 0.024116099
0.025961697 0.15559751 0.113372356 0.028574616 -0.018396765 -0.16745149 0.12473109 0.07551508
-0.029114664 -0.13041241 0.16667977 -0.015443414 -0.13280946 -0.057284385 -0.007562816 0.048894197
-0.104018874 -0.14117905 -0.10951867 0.08814058 0.023144662 0.015471846 0.012716547 0.10621515
0.010361806 -0.021449268 -0.08156576 0.14740372 0.1488606 -0.16398795 -0.04087375 -0.06931788
-0.16716152 -0.13725933 -0.12112951 -0.10933047 -0.15453711 -0.055971347 -0.12908387 -0.044902466
0.06799956 0.16439489 0.103657424 -0.085936785 -0.15398847 -0.008155152 -0.116712116 -0.04130444
-0.13105866 -0.049786232 0.08846474 -0.051242836 -0.105446845 -0.12127933 0.07151304 -0.14463787
0.10644817 0.020940274 0.14100373 -0.08282916 -0.16171761 0.1615943 0.014149606 0.031943783
0.14169541 -0.12760395 -0.15835041 -0.06244161 0.15173432 0.09918004 -0.11335306 0.04181531
-0.0355653 -0.100517824 -0.031530708 0.01857385 0.043935582 -0.07220427 0.015942529 -0.035323188
-0.12640926 -0.055186525 -0.055706903 -0.1174544 0.01189898 -0.082663715 0.11207792 0.037898496
-0.13279039 -0.12929727 0.05538109 0.017102793 0.06678179 -0.056851745 -0.08364708 -0.037326917
0.1037187 -0.16436367 0.06680055 0.10253939 -0.015923738 -0.056088902 -0.06346705 0.15785727
-0.08259321 0.15518671 0.0859389 -0.0021869093 0.089576185 0.107474536 0.029098958 -0.15954529
0.012877688 0.15415522 0.06159915 -0.047417916 0.10644591 0.033826426 0.08203262 -0.10810965
0.106194526 -0.09402951 0.13378844 -0.13048694 0.1550816 0.052984953 0.10118109 -0.0462012
0.15441245 -0.13561136 -0.10134738 -0.0137872845 0.037205935 0.035190806 -0.16743924 0.05168943
0.11405355 -0.05641953 -0.10691029 0.040428832 0.020842671 -0.07182752 -0.038108066 0.11619267
-0.05009336 0.045644432 0.16820785 0.047380775 0.1066573 -0.07236418 -0.0017813891 0.04675363
0.09255844 -0.16726238 0.12795225 0.1612316 0.055267364 -0.16413909 -0.14732058 -0.15375718
-0.13900246 0.101932794 -0.12839638 0.112004936 -0.10370062 -0.12663195 0.094198346 0.005570501
-0.013875812 -0.14762679 0.060981333 0.10435885 -0.1571258 0.15072235 0.12798476 -0.09123514
-0.058221906 -0.13652274 0.12858239 -0.1434435 -0.11408074 -0.09403779 -0.08242703 -0.14203104
0.11715022 0.09204337 0.054012597 -0.01953967 0.034246117 0.095244646 -0.111748636 -0.15390642
0.06625688 -0.124931335 -0.0157848 -0.14723508 -0.032547086 -0.01417096 -0.12513566 0.098466665
0.10939968 0.124260545 0.1630075 -0.024351045 0.104227394 -0.14620323 -0.06375257 0.06815185
