model_dicts(.onnx)/5-5-10-dict.onnx (onnx, 23367 bytes, 6 tensors)

model.layers.0.bias f4 [5]
0	0x3d11f8c9	0.03563765
1	0xb9730900	-0.00023177639
2	0x3ca4bdb2	0.020109985
3	0xbbcce694	-0.006253073
4	0x3cfdf80a	0.031002063

model.layers.0.weight f4 [5, 784]
0	0xbd100bac	-0.03516738
1	0xbd01dc56	-0.03170427
2	0x3bf6de70	0.007533841
3	0xbba458f0	-0.005015485
4	0xbb448ee0	-0.0029992387
5	0x3d09b639	0.033621047
6	0x3d046e61	0.032331828
7	0x3cebe686	0.028796446
8	0xbc5d84f8	-0.013520472
9	0xbaec6ae0	-0.0018037222
10	0xbcdb6760	-0.026782691
11	0xbcb7288e	-0.022358205
12	0x3baf2ab8	0.0053456686
13	0x3c34e4c0	0.011040866
14	0x3ca4cc0c	0.020116828
15	0xbc5c4826	-0.013444936
16	0xbcc79610	-0.024363548
17	0xbcd29c1e	-0.025709208
18	0x3c30f45c	0.010800447
19	0xbcbd4b5e	-0.023107227
20	0xbc806250	-0.015671879
21	0xbcf3720a	-0.029717464
22	0x3cdca6a6	0.026934933
23	0x3c49519c	0.012287524
24	0x3ce8cd3e	0.02841818
25	0xbcf32e5c	-0.029685192
26	0xbca4cb5a	-0.020116497
27	0xbcec773e	-0.028865453
28	0xbca5b740	-0.020228982
29	0x3bc3ad88	0.0059716143
30	0x3c765834	0.015035678
31	0x3ce85736	0.028361898
32	0x3d107c0f	0.03527456
33	0x3c217518	0.0098545775
34	0x3c86add0	0.016440302
35	0xbc683a66	-0.0141740795
36	0x3ca7e02e	0.02049264
37	0xbcbf35a5	-0.02334101
38	0xbc84ffda	-0.01623528
39	0x3b864bd0	0.004098393
40	0x3c423b60	0.011854976
41	0x3cd70ae8	0.026250318
42	0x3cbc647e	0.022997137
43	0x3d02a519	0.03189573
44	0x3ccd0f36	0.025031667
45	0xbc7b47b4	-0.01533692
46	0xbbaccb1c	-0.005273236
47	0xbcbd8cec	-0.023138486
48	0x3ba930f0	0.0051633045
49	0xbcf9cd08	-0.030493274
50	0x3cec4626	0.028842043
51	0x3bf22ba8	0.007390458
52	0xbce14680	-0.027499437
53	0xbad57d40	-0.0016287938
54	0xbc719732	-0.01474552
55	0x3c941320	0.018075526
56	0x3cacba7a	0.021085013
57	0xbcd27cdc	-0.025694303
58	0x3b923080	0.004461348
59	0xb9a9fb00	-0.00032421201
60	0x3cdd82de	0.027039941
61	0xbc8c1587	-0.017100109
62	0x3c3dfe78	0.011596315
63	0xbc29c020	-0.010360748
64	0xbd097cbd	-0.033566225
65	0x3cef492e	0.0292097
66	0x3cdba4a2	0.026811901
67	0x3c4785f0	0.012177929
68	0xbc952603	-0.018206602
69	0xbcb447f0	-0.022006959
70	0xbc8a1f9e	-0.01686078
71	0xbd09cf47	-0.03364494
72	0xbbe5a7b0	-0.0070085153
73	0xbcbc0dba	-0.022955764
74	0xbc8d4bb0	-0.017248005
75	0xbc09b178	-0.008404128
76	0xbcc816ee	-0.024424996
77	0xbcba9253	-0.022774851
78	0xbc2c512e	-0.010517402
79	0xbd071be8	-0.032985598
80	0xbd0f8f94	-0.035049036
81	0xbb383670	-0.002810862
82	0xbcfcc3f5	-0.030855158
83	0xbce4d94e	-0.02793565
84	0xbcf504c1	-0.029909493
85	0x3cfa493e	0.030552503
86	0xbce7c4c5	-0.02829207
87	0x3d0f53f3	0.03499217
88	0x3bb736e8	0.005591262
89	0x3c32fc1c	0.010924365
90	0xba966fe0	-0.0011477433
91	0xbb368870	-0.002785232
92	0x3ce89346	0.028390538
93	0x3c41f2b0	0.011837646
94	0xbcc47265	-0.023980329
95	0x3c00f8f4	0.007871855
96	0x3bed7778	0.007246908
97	0x3cf3fa9e	0.02978259
98	0x3ccceac0	0.025014281
99	0xbb55d280	-0.0032626688
100	0x3b53ad60	0.0032299384
101	0xbcda1630	-0.026621908
102	0x3c11fc28	0.008910216
103	0xbc2e39aa	-0.010633865
104	0xbccc01e3	-0.024903243
105	0xbc22e018	-0.009941123
106	0x3ab716e0	0.0013968609
107	0xbc894217	-0.016755147
108	0x3be82cc8	0.0070854165
109	0x3c1cc084	0.009567384
110	0x3abb7020	0.0014300384
111	0x3b9eebb0	0.0048498735
112	0xbce78d5c	-0.028265648
113	0x3cd693a0	0.02619344
114	0xbc8943b3	-0.016755914
115	0x3d0452b5	0.032305438
116	0xbcdb6475	-0.0267813
117	0xbc83595a	-0.016033817
118	0x3cd72b9e	0.026265915
119	0xbc15155c	-0.009099331
120	0xbce5c6dc	-0.028048925
121	0x3c2d0540	0.010560334
122	0x3ba70300	0.005096793
123	0xbcb2a183	-0.02180553
124	0xbcf8b201	-0.030358316
125	0xbcd0c23e	-0.025483247
126	0x3c8e1ddc	0.017348222
127	0x3cb61b16	0.022229712
128	0xbca865da	-0.02055638
129	0x3c282c40	0.010264456
130	0x3d000b33	0.03126068
131	0xbc04d780	-0.00810802
132	0xbd00ed36	-0.031476222
133	0x3b109fb0	0.0022067837
134	0x3b763960	0.003757082
135	0xbcd5385c	-0.02602785
136	0x3b537a50	0.003226895
137	0xbca04413	-0.01956371
138	0xbc371de6	-0.011176562
139	0x3c2cd1f8	0.010548107
140	0xbbae20f8	-0.005313989
141	0x3c9433a6	0.018091034
142	0xbcb3a2e8	-0.021928266
143	0x3ceef502	0.029169563
144	0x3ce234d6	0.027613085
145	0xbca4987c	-0.020092241
146	0x3cc38e9e	0.023871716
147	0x3b6cd390	0.0036136843
148	0x3bddfcc8	0.0067745186
149	0xbbfe42a4	-0.007759409
150	0xbc833185	-0.016014824
151	0x3ccc3f1c	0.024932437
152	0xbc862293	-0.016373908
153	0xbc959f0c	-0.018264316
154	0xb94a7600	-0.0001930818
155	0xbc2801a0	-0.010254294
156	0x3c754228	0.014969386
157	0x3cac57be	0.021037932
158	0x3a1dac40	0.0006014742
159	0x3c16aa78	0.009195916
160	0xbd052dc0	-0.032514334
161	0x3c8e2454	0.017351307
162	0xbb97c1c0	-0.004631251
163	0xbcf21a53	-0.029553568
164	0xbcee4553	-0.02908579
165	0xbc6ee472	-0.014580833
166	0xbc106712	-0.008813636
167	0xbce16a6a	-0.027516562
168	0x3cd42fd8	0.02590172
169	0x3ccc835a	0.024964977
170	0x3d0c5e21	0.034269456
171	0x3c9a40b0	0.018829674
172	0x3c286cf4	0.010279883
173	0xbd033ebc	-0.03204225
174	0xbb86e9d0	-0.004117228
175	0x3c9d2538	0.019182786
176	0x3c2d4268	0.0105749145
177	0x3c81de44	0.015853055
178	0xbcd92e15	-0.026511231
179	0xbd0843e2	-0.033267863
180	0x3ce9b256	0.02852742
181	0x3ceacbe2	0.028661672
182	0x3ba26688	0.0049560703
183	0xbccc71d0	-0.024956614
184	0xbcd741e8	-0.026276544
185	0x3bdb3b08	0.0066903867
186	0x3c49cb58	0.012316547
187	0x3ccdba1a	0.025113154
188	0xbcf9d2da	-0.03049605
189	0xbb5412d0	-0.0032359846
190	0xbbc2cd1c	-0.005944861
191	0x3b95a470	0.0045667216
192	0x3b4e9260	0.0031520352
193	0x3be30830	0.0069284663
194	0x3c20f238	0.009823374
195	0x3bf448f8	0.0074549876
196	0x3c870a9c	0.016484551
197	0xbc839b50	-0.01606527
198	0x3cf39136	0.029732328
199	0xbcce199c	-0.025158696
200	0x3b2f01b0	0.0026703887
201	0xbc32a352	-0.010903196
202	0xbc2e8126	-0.010650909
203	0x3c61f600	0.013791561
204	0x3d0edde1	0.03487957
205	0x3cbf90ca	0.02338447
206	0x3b995f98	0.004680585
207	0x3d0027e3	0.03128804
208	0x3cbe0ef2	0.023200486
209	0xbc2b9960	-0.010473579
210	0xbce8671e	-0.028369483
211	0xbcfdce7c	-0.030982248
212	0x3d0685f7	0.032842603
213	0xba52ec00	-0.0008046031
214	0xbb954224	-0.0045550037
215	0xbc86f093	-0.016472137
216	0x3c8da18c	0.017288946
217	0x3cf3141a	0.029672671
218	0x3c5cc160	0.013473839
219	0xbce7485a	-0.028232742
220	0x3c970abc	0.018437736
221	0xbcf4d33e	-0.029885884
222	0xbc79305c	-0.015209284
223	0x3cbe7030	0.023246855
224	0x3ca8b7ba	0.02059542
225	0x3b6bb610	0.0035966672
226	0x3c77c384	0.015122298
227	0xbc44d178	-0.012012832
228	0xbc5b2292	-0.013374941
229	0xb9d69980	-0.00040931627
230	0xbca5d24c	-0.020241879
231	0xbc876370	-0.016526908
232	0xbbf4e630	-0.0074737296
233	0x3cab0e96	0.020880979
234	0xbc7f74bc	-0.0155917965
235	0x3caddbe2	0.021223012
236	0x3baf5db0	0.0053517446
237	0x3cb74466	0.022371482
238	0xbcbfd87c	-0.023418657
239	0x3b2d8030	0.002647411
240	0x3cc3da12	0.023907695
241	0x3ccab396	0.024743836
242	0xbc56cf12	-0.013110893
243	0xbcf1050c	-0.029421352
244	0x3bd61690	0.0065334514
245	0xbccaa6ca	-0.024737734
246	0xbcc4afbc	-0.024009578
247	0x3c948b0c	0.018132709
248	0xbc6892a6	-0.01419512
249	0xbb98a0d4	-0.004657844
250	0x3ca01b4e	0.01954427
251	0xba4f9200	-0.0007918179
252	0xbcc384a8	-0.023866966
253	0xbb2a9720	-0.002603002
254	0x3cea9df6	0.028639775
255	0x3d005c77	0.03133818

model.layers.1.bias f4 [5]
0	0xbe933995	-0.2875487
1	0x3da2eb48	0.079550326
2	0x3edaa840	0.4270649
3	0x3e8e9a3e	0.27852052
4	0xbecf1e8b	-0.4045299

model.layers.1.weight f4 [5, 5]
0	0x3eb295fa	0.34880048
1	0x3d3f2428	0.04666534
2	0xbdbf43f0	-0.0933913
3	0x3e882eea	0.26598293
4	0x3ebfa5dc	0.37431228
5	0xbea7c2a4	-0.32765687
6	0xbed6d72e	-0.41961044
7	0xbecb5e00	-0.39720154
8	0xbe5bbf40	-0.21459675
9	0x3e6e027c	0.23243135
10	0x3e17fb70	0.1484201
11	0x3db69180	0.08914471
12	0xbe524260	-0.20533133
13	0xbd25e138	-0.04049799
14	0x3daf9c30	0.08574712
15	0x3e06ed8c	0.13176554
16	0x3e98fbac	0.2987951
17	0x3ed4249a	0.41434175
18	0xbedd87fe	-0.43267816
19	0x3e24f420	0.16108751
20	0xbec8ddb4	-0.39231646
21	0x3dcfd898	0.10148734
22	0x3e522564	0.20522076
23	0xbec1007c	-0.37695682
24	0x3e20b6e0	0.15694761

model.layers.2.bias f4 [10]
0	0x3ebd98f6	0.37030762
1	0xbed35f7d	-0.4128379
2	0x3a8aa600	0.0010578036
3	0x3e1efa20	0.15525103
4	0xbe85f882	-0.2616616
5	0xbed3af68	-0.41344762
6	0xbe9835c8	-0.29728532
7	0xbea11a2e	-0.31465286
8	0xbdea943c	-0.11454055
9	0x3ea67b60	0.32516003

model.layers.2.weight f4 [10, 5]
0	0xbeb658e7	-0.35614702
1	0x3e6050fc	0.21905893
2	0xbe868ad0	-0.2627778
3	0x3eb94e26	0.36192435
4	0x3ecd1f98	0.40063167
5	0xbdb6c734	-0.08924714
6	0x3dc67b88	0.096915305
7	0x3e8501a0	0.25977802
8	0x3ec391da	0.38197213
9	0xbea1e23a	-0.3161791
10	0x3e68a5d4	0.22719508
11	0xbeb45730	-0.3522277
12	0x3cfc8a90	0.03082779
13	0xbdddbfec	-0.10827622
14	0xbe7253fd	-0.23664851
15	0x3cd640a0	0.026153862
16	0xbe5d9b07	-0.2164117
17	0x3cb24ca0	0.021765053
18	0x3e965ec4	0.29369175
19	0xbe2c02d4	-0.16797954
20	0xbdad7ac4	-0.08470681
21	0x3eaf30f0	0.34217024
22	0xbdcbbd0c	-0.09948167
23	0x3c121be0	0.008917779
24	0x3eba648a	0.3640483
25	0xbec058ea	-0.37567836
26	0x3ee15084	0.4400674
27	0xbe6f26b4	-0.23354608
28	0x3ed00dda	0.40635568
29	0x3b5c2f00	0.003359735
30	0xbe2fac22	-0.17155507
31	0xbe829a8a	-0.2550853
32	0x3e04633c	0.1292848
33	0x3e971afe	0.2951278
34	0xbcef35c0	-0.029200435
35	0x3ea96056	0.3308131
36	0xbeae344d	-0.34024277
37	0xbec1c847	-0.37848112
38	0x3ed1213c	0.40845668
39	0xbe69d3dc	-0.22834724
40	0x3d9dd1f8	0.07706064
41	0x3e061adc	0.13096184
42	0x3ddfb2f8	0.109228075
43	0x3ddcea38	0.10786861
44	0x3e519a40	0.20468998
45	0xbe8d60a9	-0.27612808
46	0xbe84ed1a	-0.25962144
47	0xbe9f2aea	-0.31087428
48	0x3e6a21b4	0.22864419
49	0xbe032fd4	-0.12811214
