onnx_models/20-10-dict.onnx (onnx, 68499 bytes, 4 tensors)

model.layers.0.bias f4 [20]
0	0xbbf5cf64	-0.0075015295
1	0x3c104668	0.008805849
2	0xbba85578	-0.005137142
3	0xbccfba1e	-0.025357302
4	0x3caf97e0	0.021434724
5	0xbc836fd5	-0.016044537
6	0x3d087793	0.03331716
7	0xbccdcefa	-0.025123108
8	0xbbfbc408	-0.007683281
9	0xbadbb860	-0.0016763322
10	0xbc28116a	-0.010258058
11	0x3c9183d2	0.017763052
12	0x3c23851c	0.009980466
13	0x3af914a0	0.0019003339
14	0x3cc57630	0.024104208
15	0x3c94ab36	0.018148046
16	0xbb70e2d0	-0.0036756285
17	0x3c26c394	0.010178465
18	0xbd0e7bdb	-0.034786087
19	0xbccfbaa5	-0.025357554

model.layers.0.weight f4 [20, 784]
0	0xbd06d6a7	-0.032919552
1	0xbd0d28bc	-0.034462675
2	0x3c0f385c	0.0087414645
3	0x3c9c8b90	0.019109517
4	0xbc28a5dc	-0.01029345
5	0x3c80a6c2	0.015704516
6	0x3c4a4458	0.012345396
7	0xbd0c997c	-0.03432606
8	0xbcb55690	-0.022136003
9	0xba90ff60	-0.0011062436
10	0x3beac010	0.007164009
11	0x3c7b6a04	0.0153451
12	0x3b1cbca0	0.002391614
13	0x3ce4913a	0.02790128
14	0xbc500dae	-0.012698574
15	0x3c157f38	0.00912457
16	0xbb8763f0	-0.0041317865
17	0x3ce877c2	0.028377417
18	0xbcba34ac	-0.022730194
19	0x3c7b1670	0.015325174
20	0xbb9e2fd4	-0.004827479
21	0x3c38f490	0.011288777
22	0xbcd6441a	-0.02615552
23	0x3c90f512	0.017694984
24	0xbc8948f3	-0.016758418
25	0x3c9320fe	0.017960068
26	0xbcf2ef1e	-0.029655036
27	0x3c51c4fc	0.012803312
28	0x3bb29770	0.0054501817
29	0x3c9dcaaa	0.019261677
30	0xbd107986	-0.035272144
31	0x3c4611bc	0.012089189
32	0xbca635da	-0.02028935
33	0x3cbc0046	0.02294935
34	0xbcbd05d3	-0.023074066
35	0x3c81d5c8	0.01584901
36	0xbcc65665	-0.024211118
37	0x3cd247e6	0.02566905
38	0xbb7800d0	-0.003784228
39	0xbb206ad0	-0.0024477728
40	0xbcb30603	-0.021853453
41	0x3ccad31e	0.024758872
42	0xbc1d0326	-0.00958327
43	0x3cd90b9c	0.026494794
44	0xbc852565	-0.016253183
45	0xbc1c0112	-0.00952174
46	0xba88ae00	-0.0010427833
47	0xbc46c89c	-0.01213279
48	0x3cd72a0c	0.026265167
49	0x3d11f5a3	0.035634648
50	0xbc909c3e	-0.017652627
51	0xbd0db8db	-0.03460012
52	0xbd0a454c	-0.033757493
53	0xbc3d3320	-0.011547834
54	0x3c831a2c	0.01600369
55	0xbc76203c	-0.015022334
56	0x3b210750	0.002457101
57	0xbce76e0c	-0.028250717
58	0x3cda3fee	0.026641812
59	0x3cd1288c	0.02553203
60	0x3d123d09	0.03570274
61	0xbcc8e60e	-0.024523761
62	0x3c87c86a	0.016575057
63	0x3cd49b36	0.025952917
64	0x39624e00	0.00021582097
65	0x3cc7d2c0	0.024392486
66	0x3c646e60	0.013942331
67	0xbbd02a40	-0.006352693
68	0x3d11fbd7	0.035640564
69	0xbceb80e8	-0.02874799
70	0x3c2fe0c4	0.010734741
71	0x3cb430e8	0.021995977
72	0x3c40cf50	0.011768177
73	0x3ccb2b18	0.024800822
74	0xbc831fcc	-0.016006373
75	0xbc2c1200	-0.010502338
76	0xbc51d352	-0.01280673
77	0xbcf748b1	-0.03018603
78	0xbcb707be	-0.022342559
79	0xbd07b0b8	-0.033127517
80	0xbb83c2f8	-0.004021045
81	0xbd040e47	-0.03224018
82	0x3b6c3df0	0.003604766
83	0x3cd2be28	0.02572544
84	0xbc309a4a	-0.010778973
85	0xbbf217a4	-0.007388072
86	0xbc0ac0dc	-0.008468833
87	0xbbbafe14	-0.005706558
88	0xbcbc91be	-0.023018714
89	0x3cd284e6	0.025698137
90	0x3c8be19e	0.017075356
91	0xbafd5500	-0.00193277
92	0x3cc07a70	0.023495883
93	0xbbaa0508	-0.005188588
94	0x3c6311d4	0.013859231
95	0x3d067c9b	0.032833677
96	0xbc00a4a4	-0.007851753
97	0xbcefc171	-0.029267045
98	0xbcbd13ae	-0.023080673
99	0x3ce52fc6	0.027976882
100	0x3bc1d0d8	0.0059147887
101	0x3bdced80	0.0067421794
102	0x3c11fc00	0.008910179
103	0x3c0fcd48	0.00877697
104	0x3cfd9a1a	0.03095727
105	0xbc5b348e	-0.013379229
106	0xbc3e89c0	-0.011629522
107	0xbd0652be	-0.032793753
108	0xbbe9411c	-0.0071183573
109	0x3ce8d9f2	0.028424237
110	0xbcc614e0	-0.024179876
111	0xbd014dfa	-0.031568505
112	0x3c011f10	0.007880941
113	0x3cea2c72	0.028585646
114	0xbb2d9dd0	-0.0026491769
115	0xbbd8081c	-0.0065927636
116	0x3c18c928	0.009325303
117	0xbccb2aa8	-0.024800614
118	0x3d0b7e87	0.034056213
119	0xbc867457	-0.016412897
120	0xbc0650dc	-0.008197989
121	0xbbad4414	-0.0052876566
122	0x3c717264	0.0147367455
123	0x3ca941bc	0.020661227
124	0x3d0e92e5	0.03480806
125	0x3c9c0512	0.019045386
126	0x3cad0a76	0.021123152
127	0xbc162d6a	-0.009166101
128	0xbcd853fe	-0.026407238
129	0x3ccd9bb0	0.025098652
130	0xbd122b05	-0.035685558
131	0xbc3cbce6	-0.011519646
132	0xbcb64283	-0.022248512
133	0x3ca3b79e	0.019985016
134	0xbce455da	-0.027872968
135	0x3ca1a102	0.019730095
136	0xbcf2b66a	-0.029627997
137	0xb9fc1d00	-0.00048086792
138	0x3c83e9fe	0.016102787
139	0xbc4bbb2a	-0.01243476
140	0x3bcdb6b0	0.0062778816
141	0x3cb15d60	0.02165097
142	0xbc12336a	-0.008923391
143	0x3c6f7b90	0.014616862
144	0xbca91bc0	-0.020643115
145	0xbcdd3ae3	-0.027005618
146	0xbce0c01c	-0.027435355
147	0xbce77b08	-0.028256908
148	0x3c90ced4	0.017676748
149	0x3c90dbf4	0.017683007
150	0xbbc7b0d4	-0.0060940776
151	0xbc8881f7	-0.016663535
152	0xbc8f20dc	-0.017471723
153	0xbbba14e4	-0.00567876
154	0x3c484ba0	0.012225062
155	0xbcf3fa33	-0.02978239
156	0x3bc12bb8	0.0058951043
157	0xbc0c0fdc	-0.008548703
158	0x3cc2cc7c	0.023779146
159	0xbc56e3f2	-0.01311587
160	0x3cf21e86	0.02955557
161	0xbc1cb92a	-0.009565631
162	0x3c4bbe80	0.012435555
163	0x3c099f84	0.008399848
164	0x3d11c4c9	0.03558806
165	0xbd001af0	-0.03127569
166	0xbc8f3fdc	-0.017486505
167	0x3c1567d0	0.009118989
168	0xbcbb44a5	-0.02285988
169	0x3c650198	0.013977431
170	0xbc6e8b32	-0.014559554
171	0x3cfb6e2e	0.030692186
172	0xbc1ec5f2	-0.0096907485
173	0x3c78bfbc	0.015182432
174	0x3c3d1cf0	0.011542544
175	0x3c916004	0.01774598
176	0xbcb6ddc8	-0.02232255
177	0xbcdb1f7e	-0.026748415
178	0x3c22bd50	0.009932831
179	0xbd0ad9d4	-0.033899143
180	0x3bfa0668	0.007630158
181	0x3d022d43	0.031781446
182	0x3ba90bb0	0.005158864
183	0xbd0be8d4	-0.03415759
184	0xbcc781b8	-0.024353847
185	0x3b53a580	0.003229469
186	0x3c4d0de4	0.012515519
187	0xbc7dbb66	-0.015486574
188	0xbcc832fc	-0.024438374
189	0xbca5bf38	-0.020232782
190	0xbc5db766	-0.013532495
191	0xbd03da6a	-0.032190718
192	0x3cd790f8	0.026314244
193	0x3bc07450	0.0058732405
194	0xbc020338	-0.007935338
195	0xbcdb5eee	-0.026778664
196	0x3cf95e06	0.030440342
197	0xbca81e9a	-0.020522404
198	0xbd023f18	-0.031798452
199	0x3c863cd2	0.016386423
200	0x3b19a830	0.0023446195
201	0xbc443af8	-0.01197695
202	0xbc0af4ae	-0.008481188
203	0x3c741290	0.014897004
204	0xbca4e60a	-0.020129222
205	0xbd09b9bc	-0.033624396
206	0x3cd4cd4a	0.025976796
207	0x3c9e380a	0.01931383
208	0xbc25b78e	-0.010114564
209	0xbcc3dc65	-0.023908803
210	0x3c1a2748	0.009408779
211	0x3ba9f418	0.005186569
212	0xbcf2d735	-0.029643634
213	0xbcda2d7e	-0.02663302
214	0x3d0d4971	0.034493867
215	0x3c1e0080	0.009643674
216	0xbcc76cee	-0.024343934
217	0x3cc322ee	0.023820367
218	0x3cf91e5e	0.030409988
219	0xbad497a0	-0.0016219504
220	0x3ba5b790	0.0050572827
221	0xbcf1d631	-0.02952108
222	0x3d0e61cb	0.03476123
223	0xbd0758b2	-0.03304357
224	0xbc220080	-0.0098878145
225	0x3cea1136	0.02857266
226	0xbcf47683	-0.029841667
227	0x3b400e90	0.0029305555
228	0xbcd68208	-0.02618505
229	0x3c97c888	0.018528238
230	0x3cb9ebe6	0.022695493
231	0xbcad6a8e	-0.021168973
232	0x3ce11d42	0.027479772
233	0x3b9a0af0	0.004701011
234	0xbc1a96f2	-0.009435402
235	0xbb822dc0	-0.003972739
236	0xbcb189b0	-0.0216721
237	0x3d124789	0.035712752
238	0xbc1451a6	-0.00905267
239	0xbcb7ad63	-0.022421544
240	0x3c9f74b0	0.01946482
241	0xbbe54078	-0.0069962107
242	0xbb152000	-0.002275467
243	0x3a371480	0.0006983951
244	0xbafa8f20	-0.0019116141
245	0x3c43ca28	0.011950053
246	0xbc4faab8	-0.01267498
247	0x3c82a014	0.015945472
248	0x3c94d29e	0.018166836
249	0x3c8b025a	0.016968895
250	0xbca3c30c	-0.019990467
251	0x3cccd82e	0.025005426
252	0x3c690a54	0.014223654
253	0xbbd85fc0	-0.006603211
254	0xbcad9010	-0.021186858
255	0xbcbf1e9c	-0.023330025

model.layers.1.bias f4 [10]
0	0xbe5f80d6	-0.21826491
1	0x3cbf8ed0	0.023383528
2	0x3d7c7618	0.06163606
3	0xbcbc0b50	-0.022954613
4	0xbe460022	-0.19335988
5	0x3dfda438	0.12384838
6	0x3c45ee80	0.012080789
7	0x3d3601a0	0.044435143
8	0x3d2661e8	0.040620714
9	0x3e243cec	0.16038865

model.layers.1.weight f4 [10, 20]
0	0xbe191492	-0.14949253
1	0xbdbf3f9e	-0.09338306
2	0x3e17e308	0.148327
3	0xbe63ea12	-0.2225726
4	0xbe43e48c	-0.19130152
5	0xbd8d220a	-0.06891258
6	0xbe47858b	-0.19484536
7	0xbe1654b5	-0.1468075
8	0x3e3bb142	0.18329337
9	0x3e4a1a5a	0.19736615
10	0x3b045d00	0.0020197034
11	0x3e302d06	0.17204675
12	0xbe181d2e	-0.14854881
13	0xbe05de08	-0.1307298
14	0x3e1a6baa	0.15080133
15	0x3da66b18	0.08125895
16	0xbdc7a0dc	-0.09747478
17	0x3d845750	0.06461966
18	0xbcd615c0	-0.026133418
19	0xbca7c9b0	-0.020481914
20	0xbe547148	-0.20746338
21	0x3d303580	0.04301977
22	0x3e4a1b3c	0.19736952
23	0xbe450057	-0.19238411
24	0x3e2d339e	0.16914222
25	0x3d2a9f08	0.04165557
26	0xbca340d8	-0.01992838
27	0x3df76b58	0.12081021
28	0x3e0e01a6	0.13867816
29	0x3ccfa7e0	0.025348604
30	0x3e2c2438	0.16810691
31	0x3cec46e0	0.02884239
32	0xbdef6bd3	-0.11690488
33	0xbd1255b0	-0.03572625
34	0x3cbdaa78	0.023152575
35	0xbe448d6f	-0.19194578
36	0xbe0060a0	-0.1253686
37	0x3dcc922c	0.099888176
38	0x3ddcfcf8	0.107904375
39	0xbd3ee794	-0.04660757
40	0x3db25758	0.08708066
41	0x3e34afa6	0.1764513
42	0x3c7e25e0	0.01551196
43	0x3d3ab190	0.045579493
44	0x3c945280	0.018105745
45	0xbe558d15	-0.208546
46	0x3e3ca12c	0.18420857
47	0x3e191cce	0.14952394
48	0x3dd3af50	0.103361726
49	0xbe27005b	-0.1630873
50	0x3d6fdaa8	0.058558136
51	0x3d5e47e8	0.054267794
52	0xbe25740a	-0.16157547
53	0xbd6b517c	-0.057450756
54	0xbe0a6608	-0.13515484
55	0x3e2bb558	0.16768396
56	0xbe3319c5	-0.17490299
57	0x3d116cd8	0.035504192
58	0x3d30b3b8	0.043140143
59	0x3e038030	0.12841868
60	0x3d809764	0.062788755
61	0xbdc6bfc2	-0.09704544
62	0x3d971994	0.073779255
63	0x3dc8abc4	0.09798387
64	0x3e275ad2	0.16343239
65	0x3e446cee	0.19182178
66	0xb99e1a00	-0.0003015548
67	0xbe14e5c4	-0.14540774
68	0x3dc4fb68	0.096182644
69	0xbe5fd972	-0.21860293
70	0x3cfc0d30	0.030768007
71	0xbd21d664	-0.0395111
72	0xbdaf6890	-0.085648656
73	0x3d199390	0.037494242
74	0x3d1774d8	0.036976665
75	0xbe2fe48c	-0.17177027
76	0xbe0387c6	-0.12844762
77	0x3d90f778	0.07078451
78	0xbe1d642f	-0.15370248
79	0x3bdc6c20	0.0067267567
80	0xbe3b7de8	-0.18309748
81	0x3db5f9d0	0.088855386
82	0x3e14f1b2	0.14545324
83	0x3dffbc80	0.124871254
84	0xbd187bb0	-0.037227333
85	0xbe393b50	-0.18089032
86	0xbdb40b74	-0.08791247
87	0x3e45a474	0.19301015
88	0x3e5fd46c	0.21858376
89	0xbe206caa	-0.15666452
90	0xbdf14053	-0.11779847
91	0x3d8c0e98	0.06838721
92	0x3e085268	0.13312685
93	0x3e4d54cc	0.20051879
94	0x3e1def1e	0.15423247
95	0xbd1f1f84	-0.038848415
96	0x3e2ecbf4	0.1706999
97	0xbe247346	-0.16059598
98	0x3e3ca632	0.18422773
99	0xbde67777	-0.11253255
100	0x3e05b0b0	0.13055682
101	0x3dfefd8c	0.12450704
102	0xbe160510	-0.14650369
103	0xbe41e2b3	-0.18934135
104	0x3e2d6e42	0.16936591
105	0x3b1e1e40	0.0024126917
106	0xbcb1b9d8	-0.021695063
107	0x3e5539a0	0.20822763
108	0xbe37677d	-0.17910571
109	0xbe06f119	-0.13177909
110	0x3e39661e	0.18105361
111	0xbe4d8a8f	-0.20072387
112	0xbcb3d5d8	-0.021952555
113	0x3e219fc0	0.15783596
114	0xbda17110	-0.07882893
115	0x3e5c622e	0.21521828
116	0xbd7917f0	-0.060813844
117	0x3e000ee4	0.1250568
118	0x3bcb2180	0.006199062
119	0x3c9e3028	0.019310072
120	0x3e48d55e	0.19612643
121	0xbcff3cb0	-0.031156868
122	0xbe5bda4e	-0.21469995
123	0x3cb9d430	0.022684187
124	0xbdbaf33c	-0.091284245
125	0x3df8ade0	0.12142539
126	0x3cefab80	0.029256582
127	0x3de25c24	0.11052731
128	0x3d9186d8	0.071057975
129	0xbe2ec0bd	-0.17065711
130	0xbdd977dc	-0.106185645
131	0x3dc27824	0.09495571
132	0xbe4429bf	-0.1915655
133	0xbc9e8288	-0.019349352
134	0xbe1cc7f6	-0.15310654
135	0x3e552666	0.20815429
136	0xbdc8fd12	-0.09813894
137	0xbddfc3d0	-0.1092602
138	0x3e2d7594	0.16939384
139	0x3d8f0d5c	0.0698497
140	0xbd29b5e0	-0.041433215
141	0xbd2270cc	-0.039658353
142	0x3df9ca00	0.121967316
143	0xbe36b087	-0.17840777
144	0x3dc0b29c	0.09409067
145	0x3e10155a	0.14070645
146	0xbcf83050	-0.030296475
147	0x3e3bc4c4	0.18336779
148	0x3ddf2548	0.10895783
149	0x3d9001bc	0.07031581
150	0x3e3854aa	0.18001047
151	0x3db8e440	0.0902791
152	0x3e4a9016	0.19781527
153	0xbc895938	-0.016766176
154	0x3e5c050a	0.21486297
155	0x3e4a7ba4	0.19773728
156	0xbddf27aa	-0.10896237
157	0x3e43eb88	0.19132817
158	0x3dde0720	0.10841203
159	0xbd68cc04	-0.05683519
160	0xbe377e32	-0.17919233
161	0xbe4e5fb8	-0.20153701
162	0xbde95965	-0.11394004
163	0xbde11c6b	-0.109917484
164	0xbd9f6f7e	-0.07784937
165	0xbdbaa94e	-0.091143236
166	0xbe3c4224	-0.18384606
167	0x3c59e5a0	0.013299376
168	0x3e0e287c	0.13882631
169	0xbe38effe	-0.180603
170	0xbe2c9057	-0.16851936
171	0xbe0f34f0	-0.13985038
172	0x3e07720c	0.13227099
173	0x3e3da91e	0.18521544
174	0xbd329fac	-0.043609306
175	0xbe4c9428	-0.19978392
176	0xbe1a92da	-0.15095082
177	0x3da289a4	0.07936409
178	0x3d7e8688	0.062140018
179	0xbd95b968	-0.07310754
180	0xbe2bad1d	-0.16765256
181	0x3e43f138	0.19134986
182	0x3e3a6e1e	0.18206069
183	0x3e54d96a	0.20786062
184	0x3d89d05c	0.067291945
185	0x3dfe1970	0.124071956
186	0xbe329357	-0.17439018
187	0xbdb87008	-0.09005743
188	0xbe1b03a3	-0.15138106
189	0xbbbaa6c0	-0.0056961477
190	0x3e3a53e0	0.18196058
191	0x3c9978a8	0.018734291
192	0x3e00d112	0.12579754
193	0xbc9b9970	-0.018994063
194	0xbdf94a4a	-0.12172373
195	0xbdc924d0	-0.098214746
196	0xbdafb37c	-0.08579156
197	0x3dfd4d64	0.12368277
198	0xbe622211	-0.22083308
199	0x3d6d1970	0.057885587
