onnx_models/50-50-10.onnx (onnx, 176554 bytes, 6 tensors)

model.layers.0.bias f4 [50]
00000000: 72bb 933c b591 07bd 5411 a3bb 07ce a3bc
00000010: 8ac8 a33c ce39 eb3c 0059 b6ba 0829 7a3c
00000020: 3af3 c53c bc7e 4d3c 705d 11bb 8042 9cb9
00000030: 54ea b1bb e6eb 5bbc 0089 dabc 812d 043d
00000040: 25b2 d9bc 8a4d c13c 8e78 e5bc 2038 9aba
00000050: b567 89bc 62be d43c f82a c13c ce59 3ebc
00000060: ae75 a83c 4ad7 813c 4f08 11bd 137d babc
00000070: 554d aebc 3c1f 883c 78ee 0dbc 4ee0 10bd
00000080: 68f4 453c 8017 773b fe38 dd3c 568c a33c
00000090: 57b5 0ebd 662f b93c bccd 563c 8e90 a93c
000000a0: c255 da3c 9e2c e83c d69d 983c 40cb af3b
000000b0: 06d6 27bc ccba 99bc d897 eebc 265b 60bc
000000c0: 7818 c4bc a5d0 8cbc
0.018033717 -0.03309794 -0.004976431 -0.019995702 0.019993085 0.028714087 -0.0013912022 0.015268572
0.024163831 0.012542423 -0.0022180937 -0.00029804185 -0.0054295454 -0.013422942 -0.026676655 0.03226996
-0.026574204 0.023596544 -0.028011587 -0.0011765994 -0.016773084 0.025969688 0.02358006 -0.011618091
0.020563927 0.015849728 -0.035408314 -0.022764718 -0.02127711 0.016616456 -0.008662812 -0.035370164
0.012082197 0.0037703216 0.027004715 0.019964378 -0.034840908 0.02260561 0.013110574 0.020698812
0.02665222 0.028341588 0.01862995 0.0053648055 -0.010243898 -0.01876583 -0.02912514 -0.0136936065
-0.023937449 -0.017189333

model.layers.0.weight f4 [50, 784]
00000000: 3824 0ebd 362c 0bbd b78b 043d 40e4 2bba
00000010: 9434 583c 8cff b03c 5e00 d9bc 3533 94bc
00000020: b9e3 0a3d e892 cbbc e97c 033d b092 cc3c
00000030: 78b7 74bc 98ee 2e3c d891 473c 2605 f73c
00000040: 2713 0a3d a070 15bb 6ac5 f2bc 537a ddbc
00000050: 00e1 c63c 81e5 fdbc 4a33 26bc c3c8 bbbc
00000060: 78e9 8ebb fe94 963c 5247 cc3c 98b2 52bc
00000070: 278f a2bc f588 87bc b005 45bb 286b 883c
00000080: 0af2 b1bc 5ad1 ae3c 21b3 eebc d8e5 5dbc
00000090: 048a 543c 4bf5 0d3d 088e b93c b5c2 a8bc
000000a0: b1bd e4bc 102c 33bb d06f 00bd 2218 8b3c
000000b0: cc02 a33c 4027 723c 24aa 0a3c b4b3 703c
000000c0: 105a 1cbb a0ec f73b 6293 973c b6a1 d13c
000000d0: 345e 373c 138f 023d 1c72 7f3c f80a 823b
000000e0: 5592 b6bc 32ad 5abc 3aca e53c 38bd 823b
000000f0: b0f9 e53b a0e9 30bb 18fd 193c c0a9 e03b
00000100: caf5 2bbc ff24 123d 4895 f5bc 6e4f 65bc
00000110: 5a6a d53c 4fbb 073d 9054 8bbc 88b7 0bbd
00000120: 9408 e0bb cea2 fe3c 2b6f 0b3d 4611 de3c
00000130: 8002 3f3b d766 8cbc 005c 95b8 ca96 75bc
00000140: abb8 083d 8aee 64bc 849f 583c 9b3e 053d
00000150: a0f6 923c eeeb 9ebc 5090 1bbb dc84 e2bb
00000160: 20f2 3bbb 53c5 a2bc d4a3 97bb f0ef a73c
00000170: 2e98 43bc 80c7 2eba c2f8 f53c e087 653b
00000180: 1e11 de3c d3b4 083d 9ccf f0bc 20f0 6ebb
00000190: 20ec 5f3b ac36 8abc 4828 033c 7424 113c
000001a0: c470 403c 9a2b 86bc 6091 063c ae12 d93c
000001b0: 82b3 ee3c 5654 ee3c dc0e be3c 7058 b4bb
000001c0: 2396 f8bc e010 9c3c 319d 0a3d 585e 693c
000001d0: 0009 bd3b 00f6 60b9 5021 06bd 701f 01bd
000001e0: c813 b9bb c09e 8f3b b4e2 2c3c d057 7e3b
000001f0: fc97 b4bc 80a3 2e3b 9c61 5c3c 40ce fabb
00000200: 1cbf 263c c619 3ebc 928a 21bc 187d a73b
00000210: 1089 4b3c 12cd e23c bef9 8dbc 8abb bf3c
00000220: d412 e6bb dc73 b8bb 2cb1 a03c 5c71 7c3c
00000230: dcef 853c 00e0 beb9 6601 0fbd f0a9 403b
00000240: 1cd3 d93c 66ba e43c d01d 86bc f131 043d
00000250: 0002 6b3a e28f 803c 171a 09bd 92be 0bbd
00000260: b229 6dbc f560 e2bc dc2c ac3c 07cb 0cbd
00000270: 23ae 043d 880a f8bb 3eff f7bc e859 d93b
00000280: b050 2d3b 48d2 453c 455f ecbc 18a4 dfbc
00000290: f508 a8bc 6eb8 c23c 74be 08bd c017 813a
000002a0: 6cdd 0dbd fc76 04bd a49e ecbb fc0d 2bbc
000002b0: b031 bbbc 8002 3e3c 40cd 233c c352 0ebd
000002c0: 4c3c cdbc 3cdf cabc d4f5 9abb 0045 e53a
000002d0: 8286 d43c 8767 0fbd 90de 913b 6527 00bd
000002e0: 180d ad3c 90ae d63c f8ed db3b 8af7 87bc
000002f0: 1c01 93bc 6039 773c 807c 9eb9 63e4 a7bc
00000300: d09f 413b 608e e1bc b0ce 9abc 0092 56b9
00000310: 6024 3b3b a821 cb3c 624d f13c bc3f a33c
00000320: b052 05bd 30c4 04bb 0024 c2ba 2a17 acbc
00000330: 60a8 7b3b 8f4e 103d d011 473b 5026 cd3b
00000340: dc95 d0bb 002c 323b 323a 45bc 65aa f8bc
00000350: ba45 f43c aacc 9abc 58e0 1f3c c073 4d3a
00000360: 7795 0b3d 0e32 d73c e6c2 f73c dcd9 d53c
00000370: ce7a 51bc 60f9 ab3c b8c8 d73b 4028 813c
00000380: 9e9b dfbc 702e 983b 0c66 cebc 65d4 92bc
00000390: c8b1 ae3c 08c8 d73b 40df f9bb 205d 6ebb
000003a0: 0801 493c 1269 4abc e068 1cbc 40e0 10bd
000003b0: 0033 af3a 2566 a7bc 80ac a3bc b878 0bbd
000003c0: 703c 97bb 270a 0bbd 9fc0 03bd ee83 9b3c
000003d0: b367 a6bc 73f6 c1bc 7361 e5bc 4012 ef3a
000003e0: 6cef b4bc 2863 843b e5b4 f2bc 7094 53bb
000003f0: a05e c13c 582e 83bb c208 f03c c053 293a
-0.03470251 -0.03397771 0.032359805 -0.0006557144 0.013196129 0.02160623 -0.026489433 -0.018090824
0.03390858 -0.024850324 0.032101545 0.02497229 -0.0149363205 0.010677002 0.012180768 0.030153822
0.03370967 -0.0022802725 -0.02963515 -0.027035868 0.02427721 -0.030993225 -0.010144064 -0.02292288
-0.0043613277 0.018381592 0.024936352 -0.012859963 -0.019843651 -0.016544798 -0.0030063204 0.016652659
-0.021721859 0.021340061 -0.02913815 -0.013543569 0.012972359 0.034657758 0.022650734 -0.020600656
-0.027922483 -0.0027339496 -0.031356633 0.01697928 0.019898795 0.014779866 0.008463416 0.014691282
-0.0023857392 0.0075660497 0.018502895 0.025589805 0.011191893 0.031874727 0.015591171 0.0039685927
-0.022286573 -0.013346957 0.02805053 0.003989842 0.0070182905 -0.002699472 0.009398721 0.0068561733
-0.010495612 0.035679813 -0.02997841 -0.013995988 0.026051689 0.033137616 -0.017008096 -0.034110576
-0.00683696 0.03108349 0.034041565 0.027107846 0.0029145777 -0.017138882 -7.12201e-05 -0.014989564
0.033379238 -0.013972888 0.013221625 0.03253041 0.017939866 -0.01939961 -0.002373714 -0.0069128107
-0.0028678253 -0.019869482 -0.004627684 0.020500153 -0.011938138 -0.0006667301 0.030025844 0.0035023615
0.027107771 0.033375572 -0.02939587 -0.0036459044 0.003416784 -0.016871773 0.008005209 0.008858789
0.011745635 -0.016378213 0.008213371 0.026498165 0.02913833 0.029092949 0.023200445 -0.0055037066
-0.030345028 0.019051015 0.033841316 0.014243685 0.005768895 -0.00021453947 -0.032746613 -0.03152412
-0.00564811 0.004382938 0.010552097 0.0038809665 -0.022045128 0.0026647747 0.013451006 -0.0076539814
0.0101774 -0.011602825 -0.009859698 0.005111348 0.012422815 0.027685676 -0.017331 0.023404855
-0.0070212875 -0.005629046 0.019615732 0.015407886 0.016349725 -0.00036406517 -0.034913443 0.0029398166
0.026589923 0.027920913 -0.016371638 0.03227419 0.00089648366 0.015693609 -0.033472147 -0.03411729
-0.014475273 -0.027634123 0.021017484 -0.03437331 0.032392632 -0.007569615 -0.030273076 0.006633032
0.0026445799 0.012074061 -0.028854022 -0.027299926 -0.020512084 0.023769584 -0.033384755 0.0009848997
-0.034634992 -0.032340035 -0.00722106 -0.010440346 -0.022850841 0.011597276 0.009997666 -0.034746896
-0.025053166 -0.02476465 -0.004729012 0.0017491877 0.025943045 -0.03501084 0.0044515803 -0.03128757
0.021124408 0.026206285 0.0067117177 -0.016597528 -0.017944865 0.015089363 -0.00030228868 -0.020494645
0.0029544719 -0.02753371 -0.018897384 -0.0002046302 0.0028555617 0.024796322 0.029455844 0.019927852
-0.03254956 -0.0020258538 -0.0014811754 -0.02100714 0.003839992 0.03523117 0.0030375607 0.0062606707
-0.006365521 0.002718687 -0.012037801 -0.030354688 0.029818404 -0.01889642 0.009758078 0.00078373775
0.034078088 0.026268985 0.030244302 0.02610486 -0.012785627 0.020992935 0.006585207 0.015766263
-0.027295884 0.0046442077 -0.025195144 -0.017923543 0.021325007 0.006585125 -0.0076254904 -0.0036371425
0.012268312 -0.012354152 -0.0095464885 -0.03537011 0.001336664 -0.020434448 -0.019979715 -0.034050673
-0.004615359 -0.03394523 -0.03216612 0.018983807 -0.02031312 -0.023677086 -0.028000569 0.0018239692
-0.022086821 0.0040401407 -0.029627273 -0.003228452 0.023604691 -0.0040033273 0.029301051 0.0006459318

model.layers.1.bias f4 [50]
00000000: 80c2 5abb 2047 33bc 533e 0f3e cef3 e73d
00000010: 003e 3e3d caae ec3d fbb6 033e 72eb e73d
00000020: 7c47 633d e8c4 ccbc dac1 903d a643 c9bd
00000030: 3897 dd3d fbf2 07be 5033 d1bc b768 043e
00000040: b84a b23c 041a 87bd 2c6c bbbc 0ca3 f2bd
00000050: c22f da3d c59c 053e 0b9f 0a3e 0520 07be
00000060: a046 ef3c 10f4 523c ca50 ec3d ac9d e6bd
00000070: 1e24 0bbe 6207 903d b89e bebc 20f2 8a3c
00000080: fad4 c9bd 8060 0bbd 5295 aebd b0f3 d93d
00000090: 7ad4 10bd 9a83 82bd 46f7 dabd 300f 933c
000000a0: acd3 1e3d b012 623d 087e f13c 9920 0ebe
000000b0: d4dc 433d 30be 4a3d 1c3b 233d ec92 4c3d
000000c0: 08d7 b9bd f60c 94bd
-0.0033380091 -0.0109422505 0.13988619 0.11325799 0.046445847 0.11556776 0.1286277 0.113242045
0.055488095 -0.024996236 0.07068224 -0.09827356 0.10819858 -0.13276283 -0.025537163 0.1293057
0.021764144 -0.06596759 -0.022878729 -0.11847505 0.1065364 0.13048084 0.13537233 -0.13195808
0.029208481 0.012875572 0.11538847 -0.11260542 -0.13587996 0.07032658 -0.023269042 0.016961157
-0.09855075 -0.034027576 -0.08524574 0.10642183 -0.035358883 -0.06372757 -0.10691695 0.017951578
0.038776085 0.055193603 0.029479042 -0.13879623 0.04781802 0.049497783 0.039851293 0.049944803
-0.09074217 -0.072290346

model.layers.1.weight f4 [50, 50]
00000000: fe54 13bd cf83 06be be1b 9f3d 087a 953c
00000010: 9cd7 353d c55c 87bd 909f b13c 76a6 f9bd
00000020: fc80 8ebc 20fc c93d f036 253d 8c36 7fbd
00000030: d09b ad3d 2c0e d5bd b813 c03c 0048 f7b9
00000040: e235 9f3d d194 f2bd 8ef7 f83d 74ad 65bd
00000050: 681b 54bd 50b2 81bc 8262 e03d f925 f8bd
00000060: 2195 043e 7a5f f63d 6c54 07be 042c 74bd
00000070: f1c7 0c3e 74f3 7a3d f461 193d 7333 a4bd
00000080: f068 0d3d adcf 063e f259 d93d fb2b 103e
00000090: f807 9f3c da54 e3bd e38c 87bd 15ba 0ebe
000000a0: 00b7 623c f6d9 f63d 84b8 c1bc ccab 93bc
000000b0: 8760 b0bd 200b d13b c0cb 2f3c 195a 0ebe
000000c0: e02f b13c 264f 3abd 206d 2f3d 9c16 37bd
000000d0: 30ac 2e3c a413 593d 9673 0ebe baec bfbd
000000e0: 12a7 67bd 38a6 1cbd 1ff8 033e 9a37 1fbd
000000f0: 614d 0a3e 6d2b 023e 8077 d3ba 96f7 b9bd
00000100: 0a3f 803d 2a92 f63d d036 703c c0b4 69bd
00000110: 1856 c6bc 00ca 0dbe a0ca fd3b f622 bdbd
00000120: 4eb3 7bbd f692 9e3d 5e7a 933d 24a5 9cbd
00000130: 8086 703c 0b09 0d3e 17e3 0dbe 7691 52bd
00000140: 127f 49bd 12c1 55bd c0e9 053c 9025 293d
00000150: df73 09be a84c 8abc 30c6 f4bd af9b 0ebe
00000160: ccef 8ebd 2f5e b1bd c8ff 95bd 9ac9 ed3d
00000170: a0fb 2f3d efc7 e4bd c057 2ebc 004a 3e3c
00000180: 9da2 02be 9a4f 25bd 9212 66bd 806d 52bd
00000190: 3952 0abe 2aec 863d ecb9 753d c068 71bd
000001a0: 5c74 7abd a6e4 9bbd 4c29 e1bc 1675 c5bd
000001b0: 404d 77bd e0bb cebc 48d4 fabd 5088 413c
000001c0: 940a bdbd 8e56 9d3d 989e 543d 76c5 af3d
000001d0: 1b91 babd 3a0c eebd 10b4 db3d 5ccd 0a3d
000001e0: aa50 fc3d b431 c93d 8a89 8f3d 0c1c 2a3d
000001f0: 7a74 00be dcf7 023d 4a90 ffbd da50 ee3d
00000200: 4424 03be 98a2 bb3c 201e 96bb 204c 50bc
00000210: 2a92 debd 1f61 96bd fec1 bb3d 5970 0c3e
00000220: fbe6 92bd a69d 35bd 04e9 5a3d 3a55 bfbd
00000230: c81d b73c de02 ecbd 005e 3b3c 100d 123c
00000240: ee8b 973d a400 92bd 7a43 d9bd 80c3 8fbb
00000250: 5a65 8d3d 759b efbd a889 a3bd 8007 9d3a
00000260: 6a6f b53d 9f04 0c3e 2586 05be d4c7 f7bd
00000270: f04b 183d feeb 04bd 00ec b4b9 4da1 0d3e
00000280: 900b 6b3d e6d0 acbd 94f3 8b3d 666b fe3d
00000290: e5ba e7bd 202b 043d 60ac 10be 7201 e23d
000002a0: 2efe f7bd e0f4 8b3b ccb9 d0bd 1b59 073e
000002b0: b60a a33d c868 9ebc 1879 273d b437 aabc
000002c0: 909c 5ebc 6099 3b3c 74dc 703d ef34 a4bd
000002d0: c016 ca3c 00be 78bc cc2b 4b3d fed3 983d
000002e0: ea8c bc3d 0ef3 f03d e424 bebd aeed 10bd
000002f0: 74a2 62bd d033 123c 5016 4c3c 0086 513c
00000300: cb2f c2bd b783 003e eca8 b9bc 347e e0bd
00000310: 630f 103e 3654 c0bd 077e 0d3e 1077 0c3d
00000320: 3d46 c8bd 26e5 eb3d 8c66 bfbc bead ce3d
00000330: 80b9 a63a 7164 0a3e 40d1 c33b f79a 013e
00000340: fedb a93d d9eb 0dbe 007a 8fbd b00c 763d
00000350: e020 b03d b083 c93d 0081 c23c 1a5c aabd
00000360: a0e2 593d b858 c93c 600e 1f3d c07f 6fbd
00000370: 66be f03d 900b b33d 4616 04bd 7c39 20bd
00000380: dbd9 0d3e 8242 42bd 908d 67bc 5e76 65bd
00000390: 0ca5 06be ec9d 573d 480e c3bd 19ab 93bd
000003a0: b850 00bd 8ac8 e53d bc90 c2bd 406b 273c
000003b0: d234 84bd 9c56 0bbe a292 df3d 40d6 bebc
000003c0: 3648 a73d dcea 87bd 001a 7dba 0e28 25bd
000003d0: 8013 6f3d 5d35 febd a0f2 c8bc ca61 32bd
000003e0: a4dc 543d 1eba d0bd 3f7e 083e 90d0 ca3c
000003f0: 781b 44bd d062 623c a174 033e 82ea 88bd
-0.035969727 -0.13136218 0.07768963 0.018246666 0.044395074 -0.06609491 0.02168253 -0.12189953
-0.017395489 0.09862542 0.040335596 -0.06230788 0.084769845 -0.10403094 0.023446903 -0.00047165155
0.07773949 -0.11844791 0.12156592 -0.05607362 -0.05178395 -0.015832096 0.10956289 -0.12116618
0.12947513 0.120299295 -0.13215798 -0.05961229 0.13748147 0.06126733 0.03744693 -0.08017626
0.034523904 0.1316516 0.10612859 0.14079277 0.01941298 -0.111001685 -0.06618669 -0.13938172
0.013837576 0.120532915 -0.023647554 -0.018026255 -0.08612161 0.0063795 0.01072973 -0.13901557
0.021629274 -0.045485638 0.04282868 -0.044699296 0.01066117 0.052997246 -0.1391128 -0.09371324
-0.056555815 -0.038244456 0.1288762 -0.038871385 0.1350608 0.12711878 -0.0016133636 -0.090804264
0.06262024 0.12039597 0.014661506 -0.057057142 -0.024210975 -0.13846588 0.007745102 -0.09235184
-0.061450295 0.07742874 0.07201074 -0.076486856 0.014680505 0.13772981 -0.13856159 -0.051408254
-0.04919345 -0.05218608 0.008173406 0.041295588 -0.13423108 -0.016882256 -0.11951864 -0.13926576
-0.069793314 -0.08660542 -0.07324177 0.11610718 0.042964578 -0.11170947 -0.010641038 0.011614323
-0.12757345 -0.040359117 -0.056170054 -0.05137396 -0.13507928 0.065880135 0.059991762 -0.058937788
-0.061146125 -0.076119706 -0.027485512 -0.09641473 -0.060376406 -0.02523607 -0.12247521 0.011812285
-0.09230533 0.076825246 0.05190906 0.085825846 -0.09109708 -0.11623426 0.107277036 0.033887252
0.12320073 0.09823933 0.07008655 0.041530654 -0.12544432 0.03197466 -0.12478693 0.11636515
-0.12806803 0.02290468 -0.004581228 -0.012713462 -0.10867722 -0.07342743 0.091678604 0.13714732
-0.07172962 -0.0443398 0.053444877 -0.093424276 0.022353068 -0.115239844 0.011435986 0.008914247
0.07399736 -0.071290284 -0.10608573 -0.004387319 0.06904097 -0.11699573 -0.0798524 0.0011980385
0.08859141 0.13673638 -0.13039453 -0.12098661 0.037181795 -0.032451622 -0.0003450811 0.13831063
0.057384074 -0.08438282 0.06833568 0.124228284 -0.11314944 0.03226769 -0.14128256 0.11035432
-0.12109028 0.0042711347 -0.10191688 0.13217585 0.07961027 -0.019337073 0.04088697 -0.020778514
-0.013587132 0.011450142 0.05880399 -0.08017909 0.024669051 -0.015182018 0.049602315 0.07462309
0.09206565 0.11765109 -0.0928438 -0.03538292 -0.05533071 0.008923486 0.012456492 0.012788296
-0.09481772 0.12550245 -0.022663556 -0.10961571 0.1406837 -0.09391062 0.13817607 0.034293234
-0.09779022 0.11518316 -0.023364328 0.100917324 0.0012720078 0.13514878 0.0059758723 0.1265677
0.08293913 -0.138595 -0.070056915 0.060070693 0.086000204 0.098395705 0.023743153 -0.08318348
0.053194642 0.024578437 0.03883207 -0.05847144 0.117550656 0.0874244 -0.032247804 -0.03911732
0.13852637 -0.047426708 -0.014132872 -0.056021087 -0.13148898 0.05264084 -0.09524208 -0.07210369
-0.03132698 0.112198904 -0.09500262 0.0102184415 -0.06455387 -0.13607258 0.1091664 -0.023295522
0.0816807 -0.06636593 -0.00096550584 -0.040321402 0.058368206 -0.12412522 -0.024529755 -0.04355029
0.05196823 -0.10191749 0.13329409 0.024757653 -0.04787776 0.013817504 0.12837459 -0.06685354

model.layers.2.bias f4 [10]
00000000: ba8d febd 328e 873d dabe a23d b831 a3bd
00000010: e409 03bd 1d20 0cbe 4e51 a9bd 6c08 6b3d
00000020: 04e2 833d 9889 0dbe
-0.12429376 0.066189185 0.07946558 -0.079684675 -0.031991854 -0.13684125 -0.08267461 0.05738108
0.064395934 -0.13822019

model.layers.2.weight f4 [10, 50]
00000000: 8676 5cbd e807 b53d 9cab cbbc 1e28 f0bd
00000010: 94d9 cfbd c84c 83bc 34b3 e8bd 6aa5 b2bd
00000020: 38ac 953c 46a5 fe3d e027 cb3b a021 af3d
00000030: c3bb fbbd 46fc 46bd cca4 b0bd 7ef2 36bd
00000040: 744b a03d b027 e53c f834 9a3c 06f5 ce3d
00000050: 244f 0abe a229 863d 6928 05be 11e4 98bd
00000060: a418 343d d840 42bd 59c3 00be e82e eebd
00000070: 502e 1d3c c614 0dbe e76e 0dbe 722a f33d
00000080: e4f1 8fbd ce24 823d c0b7 1cbc 00a2 503c
00000090: 3886 89bc 3a80 02be d552 013e 508f 743c
000000a0: bd33 f3bd 5050 8fbc cee2 dbbd bb8d b9bd
000000b0: 98c7 1c3d 0080 bfbd c0d8 d13b 28d0 4f3d
000000c0: d948 00be a0db a43b af27 8fbd 390d 84bd
000000d0: 73be e3bd 84a7 58bd 4c42 cf3d a09a c5bd
000000e0: 948d 5c3d 1ef0 e63d f471 a3bc f848 b43d
000000f0: 1079 9f3c 3686 c1bd de99 ad3d b4c8 0ebe
00000100: f145 97bd 3d3c 04be 818c 04be 20d7 d03d
00000110: 6c40 623d eedc cabd ba33 d23d 9ae4 a73d
00000120: 8b2f 043e 2518 febd a70c 0e3e b989 86bd
00000130: d9f3 97bd d47a 663d 2ca5 0dbe 34da 10bd
00000140: ae6d ee3d 8c2c d03d f06d 1ebc b8dc 943d
00000150: 00d9 583b e075 c93b 5fc3 c7bd 40ad 80bb
00000160: 1b7c 093e 60a1 8c3c c0c2 1a3c 642e 4d3d
00000170: c4a9 afbd fee0 01be 00c2 8e3a 00a1 613c
00000180: ca81 d13d a067 a13b 52ce 923d 6711 063e
00000190: f09c 0fbd 6e58 d2bd d84f c73c 2022 813b
000001a0: a8ed e5bd ceb5 dcbd e027 f5bb c024 06bb
000001b0: e0a5 c4bb 22a1 b83d 32d1 51bd 3969 84bd
000001c0: a69c d8bd 31ca 023e 0bd6 073e bec3 babd
000001d0: b0f5 94bd 9e13 41bd 00f0 c3b9 327a bdbd
000001e0: 780c a53c 6973 acbd 9044 003c c12b cbbd
000001f0: 226e 65bd c09d 173d ecdb 913d 8a60 803d
00000200: 04fd d5bd ae1f ce3d 40e8 1cbb 6845 9dbd
00000210: 92e5 a73d 7526 0b3e 5002 373d b27e f23d
00000220: 30ef 273c 00ae 97ba 3adf da3d a096 f93c
00000230: f5a4 0e3e ae1d a83d e995 0d3e ac4d b9bc
00000240: eacc e2bd 2be6 c9bd cc5c 36bd e82e 9d3d
00000250: 12b8 0fbe da1f a03d bcf7 a3bc 7e9f 2abd
00000260: 8442 783d f8ba 383d 62a1 dcbd 3eeb ea3d
00000270: 30f6 403c 00ea 17bc cc13 dc3d 3ec1 c53d
00000280: bb6e a6bd 1a1c 5cbd 0856 643d 72f5 03bd
00000290: a08a d0bb 2095 aabd 283d 7fbd 80d1 a0bd
000002a0: b415 abbd 40de 29bc f2c6 ca3d 1491 bdbd
000002b0: a89f 3f3d cced a2bc 7042 d73d bae5 df3d
000002c0: 44ac 23bd 22cb 883d de66 0fbe 582d a63d
000002d0: ce79 90bd 10a2 953d 62f0 d5bd baa6 e93d
000002e0: 6c90 793d 9e15 993d 44e2 c0bd f283 e63d
000002f0: e857 9d3d 6473 a1bc 00da 983a fe1a ed3d
00000300: f675 8ebd 0eb7 01be 70b0 dfbd 1802 733d
00000310: 5ddd 033e 0004 353b 32ce b6bd db85 a0bd
00000320: c045 23bc 908f c5bc 79fb 0b3e b76e 063e
00000330: 5211 bf3d 0867 883c 8023 d03b 7e81 3cbd
00000340: 9cce 503d dfb7 00be e689 e13d f877 ccbd
00000350: b808 ebbd d85c 2cbd 948c be3d e2ef f03d
00000360: 0066 e1bd 685e 8b3d 27b8 103e db27 093e
00000370: 14e0 e6bd 089b 99bd 7815 943d e8ec e4bc
00000380: 78ae b63c 5c8a 173d f855 d03c 3aa6 c6bd
00000390: 1cf0 8b3d d10b b9bd fe63 d93d 880b b6bc
000003a0: 9460 d33d ba26 06bd 58fc b13c 8080 fb3c
000003b0: 6055 28bc a072 e2bb c136 0bbe 6c5d 69bd
000003c0: e029 e83b 2071 513c f200 813d 6c1e cf3d
000003d0: 7c14 d5bc c090 fd3c 406b 27bb 34ac 8e3d
000003e0: bc8a f7bd aa71 c83d a844 18bd fce8 c13d
000003f0: 646d 5dbd db6e 02be 5c98 533d da85 8e3d
-0.05382397 0.088393986 -0.024862103 -0.11726402 -0.101489216 -0.016027823 -0.11362305 -0.087229565
0.018270597 0.12433867 0.006199822 0.08551335 -0.12291672 -0.04858043 -0.086251825 -0.044664852
0.078268915 0.027973026 0.018824086 0.10105328 -0.13506752 0.065509096 -0.13003697 -0.07465375
0.04396881 -0.04742512 -0.12574519 -0.116300404 0.009593561 -0.13777456 -0.13811837 0.1187333
-0.07028559 0.06354676 -0.009565294 0.012733936 -0.016787633 -0.12744227 0.12629254 0.0149267465
-0.11875103 -0.01749435 -0.10736619 -0.09060236 0.038276285 -0.09350586 0.0064040124 0.050735623
-0.12527789 0.005031064 -0.06989991 -0.064478345 -0.1112031 -0.05289413 0.10120067 -0.09648633
0.053845957 0.112762675 -0.019951798 0.0880298 0.019466907 -0.09449427 0.084766135 -0.1394375
-0.07386387 -0.12913604 -0.12944223 0.10197282 0.05523722 -0.0990542 0.10263772 0.08197899
0.12908761 -0.12406949 0.13872014 -0.06569237 -0.07419557 0.05626948 -0.1383254 -0.035364345
0.116420135 0.10164747 -0.009669766 0.07268661 0.0033088326 0.006148085 -0.09754061 -0.003926903
0.13426249 0.017166793 0.009445846 0.05009307 -0.08577302 -0.12683484 0.0010891557 0.013771296
0.102298334 0.004925683 0.07168259 0.13092576 -0.035061777 -0.10270773 0.024330065 0.0039408356
-0.1122697 -0.10776864 -0.00748156 -0.0020468682 -0.006001219 0.09015109 -0.051224895 -0.06465382
-0.10576753 0.12772442 0.13265245 -0.09119366 -0.07273424 -0.04713785 -0.00037372112 -0.092518225
0.020147547 -0.0842045 0.007828847 -0.09920455 -0.056013234 0.037015676 0.07122025 0.06268413
-0.104486495 0.10064636 -0.0023942143 -0.07679254 0.08198084 0.13588889 0.04467994 0.118405715
0.010249898 -0.0011572242 0.10687108 0.030467331 0.13930114 0.08208786 0.13826717 -0.022620045
-0.110742405 -0.09858354 -0.04452209 0.07674962 -0.14035061 0.07818575 -0.02001559 -0.04165601
0.06061031 0.045100182 -0.10772969 0.1147065 0.011777446 -0.009272099 0.107459635 0.09655999
-0.08126589 -0.053737737 0.05574611 -0.032216497 -0.0063641816 -0.083292246 -0.062314183 -0.07852459
-0.08353749 -0.01036793 0.09901227 -0.09256187 0.04678312 -0.019888781 0.10510719 0.10932489
-0.039959207 0.066793695 -0.14004084 0.081141174 -0.070544824 0.073063016 -0.1044624 0.11408754
0.060928747 0.07474826 -0.09418157 0.11255635 0.076827824 -0.019708343 0.0011661649 0.11577414
-0.06956093 -0.12667486 -0.10922325 0.05932817 0.12877412 0.0027620792 -0.089260474 -0.07838031
-0.00996536 -0.024116307 0.13670148 0.13128172 0.093294755 0.016650692 0.006351888 -0.04602193
0.050978288 -0.12570141 0.1101263 -0.0998382 -0.11476272 -0.04208073 0.09304157 0.11764504
-0.11005783 0.06805116 0.14132749 0.1339411 -0.11273208 -0.07500273 0.07230657 -0.027944997
0.02229999 0.036997184 0.025431618 -0.09699674 0.068329066 -0.09035457 0.10614775 -0.022222295
0.10321155 -0.032751776 0.021726772 0.030700922 -0.010274261 -0.006910637 -0.13595106 -0.05697386
0.00708507 0.012783319 0.062990084 0.101132244 -0.026010744 0.030952811 -0.0025546104 0.06966439
-0.12087008 0.09787305 -0.03717485 0.09468266 -0.0540594 -0.127376 0.051658973 0.06959124
