py_files/model_dicts/5-5-10-dict.pt (torch, 18662 bytes, 6 tensors)

layers.0.weight f4 [5, 784]
-0.0022723489 -0.010667456 0.0069082975 0.032564808 0.031443287 -0.024344824 0.027373973 -0.0051921345
0.015282318 -0.023889964 0.0032766983 0.022757288 -0.019505916 -0.02909279 -0.0295324 0.027129225
0.02424907 -0.011142062 0.0015713535 0.027494337 0.013984341 -0.03545902 0.018072568 -0.0004788451
0.017984752 0.018238772 -0.023019996 0.007619612 -0.031000232 -0.014303485 -0.030841935 -0.029899815
-0.010787659 0.011195427 -0.034456365 -0.028518762 -0.031486295 -0.009340846 0.004169852 -0.024226699
0.0019809287 0.030854374 -0.020151906 -0.01262832 -0.027804678 0.033312008 -0.02326186 -0.027779203
-0.03439483 0.030390764 0.02073513 -0.029053675 0.019832373 -0.0026471242 0.0048137307 0.029456068
0.0009709783 0.013962805 -0.030416258 0.02363183 -0.013080135 -0.013840121 -0.022810293 0.00022782391
-0.008115612 -0.017505797 -0.0006110944 0.02891419 0.035639428 0.028557815 -0.031271663 0.034227036
-0.0012292783 0.006145401 -0.026589857 0.02459244 -0.009661384 -0.004238232 -0.027964517 0.02041412
-0.01638537 -0.020144798 -0.0033953413 0.004869424 0.007247258 -0.03417784 -0.013447769 0.011471584
0.0011512991 -0.012739485 0.011047394 -0.026490489 0.034346983 -0.031567447 0.02932669 -0.0012066541
0.0027845418 -0.017087162 0.03353762 -0.0016943337 0.0037904705 -0.012417929 -0.02127213 0.008301066
-0.018784314 0.026387531 0.019580474 -0.022203773 0.008486087 -0.01728455 0.007937851 0.027253587
-0.010316024 0.022002103 0.008036948 -0.01038662 -0.001614504 0.029369254 0.002102041 0.0060091885
-0.021736933 0.023772713 0.029876895 0.023867397 -0.0015557589 -0.0061805733 0.036924604 0.0046580294
-0.005092823 0.024384722 0.03769179 0.020807873 0.022677854 0.010873404 -0.026389917 -0.021921253
0.0142500065 -0.0067041013 0.008270383 0.029904077 0.028432641 0.018125314 -0.015348208 -0.01212115
0.008803209 0.009375847 -0.015221507 -0.0041261595 -0.0099441325 0.010452322 -0.00018397666 0.0658855
0.02274239 0.031481117 0.035077967 0.09342048 0.041232914 0.0554057 0.034837093 0.021879757
0.004600643 -0.04078441 -0.030495236 0.0018116927 -0.011647638 -0.008545913 0.010519651 -0.0038009197
0.010755766 0.026454566 -0.0053206775 -0.01992907 0.01982798 0.040291186 0.0052151904 -0.0022498616
0.054745615 0.016462144 0.0705851 0.017901663 0.05265771 0.05326244 0.070872985 0.06361298
0.050967865 -0.0039423234 -0.008669193 0.030816616 -0.018368859 0.0144068785 -0.055297732 -0.004724588
-0.005116603 8.263615e-05 -0.023513807 0.024528187 -0.023748424 0.015076392 -0.023547046 0.0065620653
0.03298789 -3.5821457e-05 0.050959326 0.01631812 0.020055331 0.032755982 0.02994832 -0.016149983
0.034115497 0.032701183 0.04988649 0.033882577 -0.003363194 -0.0014018003 -0.0022985965 0.00070762436
0.014843326 0.017739344 0.010879604 -0.016734153 -0.03900287 -0.01196344 0.011884533 0.00816482
0.013305169 -0.01979289 -0.010319634 -0.0055470136 -0.0008533018 0.04727153 -0.008439714 0.023478663
0.02165566 -0.017050078 -0.009688854 -0.0038418055 -0.020355932 -0.02495659 0.015878363 0.070351094
0.026077598 0.01828629 0.008108589 -0.016728567 -0.024587661 0.022758108 -0.046698067 -0.048532337
0.016723238 -0.031105379 -0.0018652431 -0.013284466 -0.029407643 0.023977473 0.0037650114 -0.020803541
00000000: b0eb 14bb 8ec6 2ebc 005f e23b ad62 053d
00000010: adca 003d cc6e c7bc 623f e03c c822 aabb
00000020: b062 7a3c e3b4 c3bc e0bd 563b 7e6d ba3c
00000030: dfca 9fbc 0154 eebc efed f1bc 1c3e de3c
00000040: fca5 c63c 328d 36bc e0f5 cd3a ce3b e13c
00000050: 941e 653c 7a3d 11bd ec0c 943c 800d fbb9
00000060: c254 933c 7a69 953c 6e94 bcbc f0ad f93b
00000070: 33f4 fdbc 2a59 6abc 3aa8 fcbc 75f0 f4bc
00000080: b9be 30bc 066d 373c 1e22 0dbd 2ea0 e9bc
00000090: c6f7 00bd 590a 19bc 41a3 883b 1277 c6bc
000000a0: 78d2 013b 50c2 fc3c 9c15 a5bc 03e7 4ebc
000000b0: a3c6 e3bc 2c72 083d a88f bebc 3691 e3bc
000000c0: 98e1 0cbd 0df6 f83c b8dc a93c f901 eebc
000000d0: 8077 a23c 607b 2dbb 80bc 9d3b da4d f13c
000000e0: 4089 7e3a 40c4 643c 842b f9bc 8a97 c13c
000000f0: 104e 56bc adc1 62bc a7dc babc 04e4 6e39
00000100: 58f7 04bc 5168 8fbc da31 20ba 74dd ec3c
00000110: a6fa 113d 14f2 e93c b716 00bd a631 0c3d
00000120: bc1f a1ba 5c5f c93b f9d2 d9bc 1676 c93c
00000130: c84a 1ebc dee0 8abb d815 e5bc 833b a73c
00000140: 9d3a 86bc b406 a5bc 6084 5ebb b08f 9f3b
00000150: 687a ed3b 10fe 0bbd 0854 5cbc 50f3 3b3c
00000160: 30e7 963a 46b9 50bc 2100 353c 9502 d9bc
00000170: 6caf 0c3d de4c 01bd 873e f03c 9828 9eba
00000180: dc7c 363b 60fa 8bbc be5e 093d 6814 deba
00000190: 8b69 783b 9274 4bbc e442 aebc 3201 083c
000001a0: 90e1 99bc aa2a d83c 3b67 a03c b0e4 b5bc
000001b0: 3b09 0b3c 5498 8dbc c30d 023c ea42 df3c
000001c0: 8a04 29bc c13d b43c 67ad 033c a42c 2abc
000001d0: c49d d3ba ca97 f03c 65c2 093b bae8 c43b
000001e0: a711 b2bc febe c23c 64c0 f43c 8f85 c33c
000001f0: 9bea cbba 6886 cabb 413e 173d 62a2 983b
00000200: b2e1 a6bb 78c2 c73c b562 1a3d 4675 aa3c
00000210: e8c6 b93c 5d26 323c ab2f d8bc 3394 b3bc
00000220: dc78 693c 14ae dbbb 8080 073c 65f9 f43c
00000230: 92eb e83c 8a7b 943c 0d77 7bbc ca97 46bc
00000240: 563b 103c 279d 193c a163 79bc bc34 87bb
00000250: b7ec 22bc 3740 2b3c dce9 40b9 faee 863d
00000260: 404e ba3c 58f2 003d eaad 0f3d 3d53 bf3d
00000270: d8e3 283d 16f1 623d 57b1 0e3d 2d3d b33c
00000280: fec0 963b 8e0d 27bd 25d1 f9bc 5276 ed3a
00000290: bcd5 3ebc 2804 0cbc 9d5a 2c3c da18 79bb
000002a0: f438 303c 3fb7 d83c 1459 aebb 4a42 a3bc
000002b0: 4a6e a23c 5f08 253d 30e4 aa3b 6a72 13bb
000002c0: f03c 603d 9edb 863c ec8e 903d 82a6 923c
000002d0: 9caf 573d b729 5a3d db25 913d 8647 823d
000002e0: aec3 503d 9b2e 81bb 3b09 0ebc 2173 fc3c
000002f0: 4a7a 96bc d40a 6c3c e07f 62bd b7d0 9abb
00000300: 2da9 a7bb f24c ad38 07a0 c0bc 56ef c83c
00000310: 0e8c c2bc f902 773c bce5 c0bc 9806 d73b
00000320: 4f1e 073d ff3e 16b8 baba 503d 94ad 853c
00000330: 144b a43c 232b 063d 2e56 f53c f84c 84bc
00000340: b1bc 0b3d adf1 053d c755 4c3d 75c8 0a3d
00000350: 0869 5cbb 9dbc b7ba 0da4 16bb de7f 393a
00000360: 6c31 733c 1a52 913c 5e40 323c 1016 89bc
00000370: 79c1 1fbd 4e02 44bc 58b7 423c bdc5 053c
00000380: ecfd 593c b324 a2bc af13 29bc b9c3 b5bb
00000390: 1db0 5fba cb9f 413d ba46 0abc 5356 c03c
000003a0: 3667 b13c 9bac 8bbc 00be 1ebc cdc6 7bbb
000003b0: 7cc1 a6bc c371 ccbc 5713 823c 3c14 903d
000003c0: b0a0 d53c 21cd 953c e3d9 043c 590a 89bc
000003d0: 106c c9bc 366f ba3c 7946 3fbd d8c9 46bd
000003e0: 2cff 883c b5d0 febc 2c7b f4ba 17a7 59bc
000003f0: 4ce8 f0bc 686c c43c 69be 763b 306c aabc

layers.0.bias f4 [5]
0.07665122 0.09976245 0.15174618 0.025520345 0.0074468465
00000000: 51fb 9c3d 4150 cc3d 5a63 1b3e 0b10 d13c
00000010: ad04 f43b

layers.1.weight f4 [5, 5]
0.14041623 -0.32786393 -0.5601202 -0.328036 0.9412036 0.49773267 -0.72533095 -0.23539786
-0.25857705 0.45314863 0.7946184 -0.5606978 0.64957607 -0.54707575 0.1986816 -0.13001251
0.08750048 -0.023189902 -0.6490141 0.72940207 -0.18120687 -0.16301133 0.21501611 -0.101146966
-0.19066481
00000000: 46c9 0f3e c8dd a7be 0a64 0fbf 56f4 a7be
00000010: b8f2 703f d1d6 fe3e 4aaf 39bf 230c 71be
00000020: 3664 84be 1903 e83e 1d6c 4b3f e489 0fbf
00000030: 9e4a 263f 280d 0cbf 3073 4b3e 0022 05be
00000040: 7433 b33d c0f8 bdbc ca25 26bf 18ba 3a3f
00000050: 4b8e 39be 71ec 26be 2f2d 5c3e 2426 cfbd
00000060: a33d 43be

layers.1.bias f4 [5]
0.27131978 0.26491156 0.46972564 0.05475084 0.046337537
00000000: 6dea 8a3e 7da2 873e e17f f03e 6b42 603d
00000010: 6ecc 3d3d

layers.2.weight f4 [10, 5]
0.67254746 -0.6654567 -0.1134104 0.7514993 0.13891526 -0.6875755 -0.0066214027 1.1209368
-0.11219208 -0.17754853 0.61097646 0.30119976 0.03586867 0.22485544 -0.31098208 0.22800028
0.691242 0.42558488 0.29344854 -0.28597462 -0.38258645 0.110314146 -0.4746687 0.22881702
0.27806503 -0.008090915 0.14365354 0.074875556 0.42741343 0.42194757 -0.25079653 0.17497714
0.06542685 -0.35099488 0.19743773 -0.31284115 0.14201175 0.36686617 0.058139954 0.20855245
0.5344379 0.33662826 0.20638663 -0.43593785 -0.0013695842 -0.052918002 -0.5207108 -0.019560462
-0.19503944 -0.37646434
00000000: 122c 2c3f 5f5b 2abf b643 e8bd 4262 403f
00000010: cd3f 0e3e f304 30bf 5af8 d8bb db7a 8f3f
00000020: f6c4 e5bd 48cf 35be f468 1c3f db36 9a3e
00000030: 07eb 123d 8140 663e 0b39 9fbe e878 693e
00000040: 3cf5 303f 43e6 d93e e33e 963e 446b 92be
00000050: 5fe2 c3be 62ec e13d c707 f3be 024f 6a3e
00000060: 8a5e 8e3e c28f 04bc ea19 133e 5b58 993d
00000070: efd5 da3e 8309 d83e 6768 80be 352d 333e
00000080: 83fe 853d 9ab5 b3be 1e2d 4a3e b72c a0be
00000090: 876b 113e e2d5 bb3e 2924 6e3d c68e 553e
000000a0: ecd0 083f 8a5a ac3e 0457 533e 3f33 dfbe
000000b0: 9f83 b3ba 8cc0 58bd 4e4d 05bf 433d a0bc
000000c0: 6bb8 47be efbf c0be

layers.2.bias f4 [10]
-0.51188534 -0.07820923 -0.39720854 -0.79138774 0.41600388 0.30308318 0.28203613 0.30592027
0.027268328 0.40489638
00000000: eb0a 03bf 292c a0bd eb5e cbbe 6398 4abf
00000010: 76fe d43e b82d 9b3e 0a67 903e 95a1 9c3e
00000020: d461 df3c 944e cf3e
